ex/PINN/model_data/pinne_heat_prova.pth (torch, 209186 bytes, 18 tensors)

network.fc0.weight f4 [64, 2]
1.5404934 1.3759775 -0.440176 -0.13447565 -0.4438212 -0.17102328 -0.339647 1.4910696
0.64651585 1.3179675 -0.51802856 -1.3100059 0.54548115 1.3106939 0.9464358 1.300251
0.8604766 -0.065063976 0.19473417 -1.4964278 0.57603365 1.3099815 -0.88628614 0.35115167
0.43199244 -1.3353308 1.0209056 -1.2521702 -0.12979041 1.4337153 0.94755375 -0.02247664
0.08719681 1.4795308 0.7255878 -1.1802088 -3.0279665 0.041323353 -0.43128633 -0.1293588
-0.208193 -1.3790971 0.98281 -1.2484988 0.5314777 1.3113394 0.14188781 1.415704
-0.7048022 1.4695317 -0.037478205 -1.4142962 0.792508 -1.7499577 0.8488165 -1.2434046
-0.23119542 -1.5775719 0.5214083 1.3149534 -0.87189746 0.3232567 0.9194881 0.0070104813
0.096047245 -1.4954921 -1.0359662 1.6458187 1.3016777 -1.2777094 0.2728177 -1.4066156
0.9082198 -1.7830138 0.26618886 1.3160655 -1.1896769 -0.3203716 0.67849845 1.6674395
1.0587314 1.6118301 -0.5653733 -0.19935086 0.526058 -1.2960733 1.2893326 -1.2631173
0.5934627 1.4884992 0.8470897 -1.050872 1.361435 1.3353336 -0.5945517 -0.20013748
-1.2837541 0.33049783 1.0057776 -1.7261366 -0.37896276 -0.1036146 -0.814472 0.33886302
0.7964562 -1.222009 0.42061937 1.2929212 -0.39067385 -0.11927949 -0.56047535 -0.19495502
0.97542334 1.751429 0.3676536 -1.3291109 -0.97395 0.32836396 -1.3551489 -0.317621
-1.2204407 -1.6944208 0.3252478 1.3326262 0.057134673 -1.4770716 0.6793537 -1.2870138
00000000: e32e c53f 0820 b03f c05e e1be fcb3 09be
00000010: 883c e3be ba20 2fbe 36e6 adbe 5edb be3f
00000020: 1082 253f 29b3 a83f 859d 04bf 46ae a7bf
00000030: a7a4 0b3f d1c4 a73f 9e49 723f a06e a63f
00000040: 3248 5c3f 4340 85bd 6568 473e f28a bfbf
00000050: f176 133f 79ad a73f a6e3 62bf 27ca b33e
00000060: 1d2e dd3e 1fec aabf 09ad 823f 1d47 a0bf
00000070: c7e7 04be fc83 b73f e292 723f ee20 b8bc
00000080: 3e94 b23d 4461 bd3f 1fc0 393f 1511 97bf
00000090: 34ca 41c0 ad42 293d 90d1 dcbe a276 04be
000000a0: 8c30 55be 4186 b0bf 7099 7b3f cfce 9fbf
000000b0: ec0e 083f f8d9 a73f 0a4b 113e ca35 b53f
000000c0: eb6d 34bf 9d19 bc3f bf82 19bd a807 b5bf
000000d0: cee1 4a3f 9dfe dfbf 0a4c 593f e227 9fbf
000000e0: 7ebe 6cbe e0ed c9bf 047b 053f 6550 a83f
000000f0: ac34 5fbf e781 a53e 9263 6b3f 2eb8 e53b
00000100: 6bb4 c43d 496c bfbf 8a9a 84bf 30aa d23f
00000110: 609d a63f fb8b a3bf c3ae 8b3e fb0b b4bf
00000120: 1881 683f cc39 e4bf e849 883e d674 a83f
00000130: 5547 98bf bf07 a4be 13b2 2d3f a86e d53f
00000140: 8384 873f 7350 ce3f 4ebc 10bf a222 4cbe
00000150: bdab 063f bbe5 a5bf da08 a53f d4ad a1bf
00000160: 2ced 173f 2487 be3f dfda 583f f982 86bf
00000170: 8143 ae3f 36ec aa3f 8a34 18bf d7f0 4cbe
00000180: 0e52 a4bf 0337 a93e 52bd 803f 0bf2 dcbf
00000190: 6807 c2be e433 d4bd 3d81 50bf 747f ad3e
000001a0: 8ee4 4b3f ca6a 9cbf 6c5b d73e 717e a53f
000001b0: 6706 c8be ce48 f4bd 507b 0fbf 4aa2 47be
000001c0: 58b5 793f d32e e03f 183d bc3e 4e20 aabf
000001d0: ca54 79bf 521f a83e 8575 adbf 389f a2be
000001e0: 6737 9cbf c8e2 d8bf e186 a63e 7f93 aa3f
000001f0: 0c06 6a3d af10 bdbf 20ea 2d3f debc a4bf

network.fc1.weight f4 [64, 64]
0.114167616 -0.20777185 -0.14305007 0.03667858 0.12326392 0.027649619 0.12553823 0.12647577
0.10105477 -0.012428813 0.065419406 0.02374546 0.09342874 0.096406735 0.058923744 0.08172267
-0.027985848 0.09756436 0.04719977 -0.122299924 0.074575566 0.102390036 0.08623233 -0.017735869
0.032995906 0.012629983 -0.009947689 0.08746917 0.060438868 0.09738905 0.033149287 0.21914291
0.08794154 0.002192276 0.059893258 0.060310718 -0.022304619 0.059973545 0.058932103 -0.021812934
-0.0068339943 -0.08443119 0.0884478 0.05216061 0.07761095 0.10511264 0.082888916 -0.07535446
0.045240644 -0.011138263 -0.13788539 0.029837186 0.07411254 0.06160103 -0.18901098 -0.011880065
-0.007725808 0.039538875 0.06545657 0.029683653 0.027440503 0.07245388 0.07747468 0.10906748
-0.052468486 0.23445936 0.1946743 0.01667642 -0.041003954 0.010328849 -0.031149521 -0.056239147
-0.11784675 0.009109359 -0.04320194 0.122425474 -0.032322984 -0.055979546 -0.0062798266 -0.105827354
0.0021665064 -0.04629799 -0.11248804 0.23852946 0.00489376 -0.051240254 -0.04082629 0.020436509
0.0301134 -0.003316657 0.0043665636 -0.056358367 -0.01144225 -0.046177972 0.118748434 -0.111751944
0.00014238298 0.0010901401 -0.056609448 -0.014341765 -0.001473852 -0.028144006 0.022756439 -0.0073984466
-0.01691142 0.15395035 -0.032225583 -0.055291247 -0.038155574 -0.06540645 -0.055025417 0.15135269
0.024000866 -0.000908453 0.2700412 0.12724808 -0.046956398 -0.036114354 0.2684026 0.15856443
-0.011394256 -0.030223181 0.1026248 -0.014544612 0.0017316233 -0.033467133 -0.013055258 -0.043322287
0.04733261 1.2454716 0.92013115 0.09196383 0.06586576 0.09775865 0.08004571 0.059566986
-0.3321176 -0.09446571 0.07515146 0.5611165 0.051753428 0.050373822 0.08832852 -0.4189032
0.025307678 0.062041525 1.9367751 1.3309814 0.086730525 0.0594525 0.0800216 0.048626225
0.12014481 0.10778709 0.008123333 0.05193592 0.024931503 0.06548028 0.6509663 -0.4957358
0.035209488 0.05036131 0.038949676 0.029745718 0.008437254 0.10156649 0.86819446 0.015015227
0.008264084 0.90492654 0.05284731 0.042090155 0.031739376 0.06639628 0.053214468 0.93908083
1.407714 -0.0036978612 1.4171312 0.51072145 0.05713825 0.09265666 1.2321513 1.0174456
-0.012304286 0.05945764 0.8147667 0.9276515 -0.0063430625 0.102645166 0.031709567 0.048397344
-0.005739537 0.07689474 0.07445608 -0.029557627 0.009036158 0.063848406 0.010720294 0.016352363
-0.094038025 0.004289919 0.01803914 0.051340245 0.007866876 0.004596661 -0.021196015 -0.07310598
0.017109785 0.0056832163 -0.042194974 0.06383963 -0.060753625 0.0025049732 0.008898741 0.040015124
0.021938017 0.043191608 0.0013702661 0.011566211 0.03745169 0.0067503457 0.057350647 -0.07773197
-0.009909272 -0.92076594 -0.0020480512 0.02050573 -0.0025860302 0.005778988 0.024502888 0.026087191
0.024850188 0.05765528 0.009602488 -0.0012089722 0.009220779 0.002961249 0.0003021325 0.07109519
0.061298307 0.0107516525 0.08342061 0.06549521 0.009514577 0.017251555 0.06395758 0.027583173
0.016086672 0.013384388 0.042779695 0.005102849 -0.9157674 0.0082077 0.021862939 0.014973458
00000000: b6d0 e93d 25c2 54be b87b 12be 473c 163d
00000010: cb71 fc3d 7481 e23c 188d 003e dd82 013e
00000020: cef5 ce3d 38a2 4bbc 9cfa 853d d785 c23c
00000030: 9157 bf3d e570 c53d 065a 713d 375e a73d
00000040: 9442 e5bc d3cf c73d 8c54 413d 6278 fabd
00000050: 13bb 983d deb1 d13d 939a b03d d04a 91bc
00000060: b726 073d fded 4e3c a2fb 22bc 0923 b33d
00000070: bf8e 773d e973 c73d 8cc7 073d 0067 603e
00000080: b21a b43d 4aac 0f3b a252 753d 5f08 773d
00000090: 2db8 b6bc d2a6 753d ca62 713d 0ab1 b2bc
000000a0: b3ef dfbb 42ea acbd 1f24 b53d 5da6 553d
000000b0: 7df2 9e3d 4c45 d73d aac1 a93d 7053 9abd
000000c0: 414e 393d 437d 36bc d431 0dbe 1d6d f43c
000000d0: 51c8 973d 5d51 7c3d 188c 41be 9ba4 42bc
000000e0: c628 fdbb 84f3 213d 180e 863d 222b f33c
000000f0: e8ca e03c b362 943d 0cab 9e3d c55e df3d
00000100: 32e9 56bd 1d16 703e b358 473e fd9c 883c
00000110: c3f3 27bd 553a 293c 482d ffbc 055b 66bd
00000120: a359 f1bd 6c3f 153c 84f4 30bd 35ba fa3d
00000130: 1b65 04bd cf4a 65bd 01c7 cdbb 03bc d8bd
00000140: f2fb 0d3b f6a2 3dbd 2160 e6bd 1141 743e
00000150: d65b a03b 4de1 51bd 7839 27bd 776a a73c
00000160: 61b0 f63c 455c 59bb 6415 8f3b 08d8 66bd
00000170: 4678 3bbc 1d25 3dbd 6132 f33d 34de e4bd
00000180: a44c 1539 08e3 8e3a 4fdf 67bd b9f9 6abc
00000190: 442e c1ba 428e e6bc b66b ba3c ab6e f2bb
000001a0: d189 8abc 29a5 1d3e f9fe 03bd 1379 62bd
000001b0: 0549 1cbd d1f3 85bd 5562 61bd 33fc 1a3e
000001c0: 779d c43c 4025 6eba d742 8a3e 524d 023e
000001d0: 5a55 40bd a5ec 13bd 116c 893e b75e 223e
000001e0: f9ae 3abc 9b96 f7bc f32c d23d 864c 6ebc
000001f0: a3f7 e23a d514 09bd b9e5 55bc b672 31bd
00000200: d7df 413d 9d6b 9f3f b78d 6b3f 8857 bc3d
00000210: a1e4 863d b035 c83d 01ef a33d 83fc 733d
00000220: 510b aabe 3d77 c1bd 02e9 993d 55a5 0f3f
00000230: 67fb 533d c854 4e3d 95e5 b43d 7b7a d6be
00000240: 0c52 cf3c 411f 7e3d 3fe8 f73f 995d aa3f
00000250: c69f b13d 7784 733d 5de2 a33d 4b2c 473d
00000260: 7b0e f63d 7abf dc3d ba17 053c c2ba 543d
00000270: 273d cc3c 861a 863d baa5 263f 15d1 fdbe
00000280: d337 103d a947 4e3d b289 1f3d 4bad f33c
00000290: 683c 0a3c 1802 d03d fe41 5e3f 6d02 763c
000002a0: 1566 073c 44a9 673f 6c76 583d ba66 2c3d
000002b0: 2601 023d c6fa 873d 6af7 593d 9a67 703f
000002c0: f92f b43f d157 72bb 8e64 b53f a4be 023f
000002d0: cc09 6a3d c6c2 bd3d 22b7 9d3f a83b 823f
000002e0: ea97 49bc db89 733d 8d94 503f 927a 6d3f
000002f0: 77d9 cfbb a137 d23d e4e1 013d 4b3c 463d
00000300: ba12 bcbb fd7a 9d3d 6e7c 983d d622 f2bc
00000310: 650c 143c f4c2 823d 2ca4 2f3c 64f5 853c
00000320: 0297 c0bd 7392 8c3b d2c6 933c 264a 523d
00000330: 12e4 003c 969f 963b 44a3 adbc 97b8 95bd
00000340: d229 8c3c 463a ba3b a3d4 2cbd 5abe 823d
00000350: cbd8 78bd 7a2a 243b 06cc 113c e6e6 233d
00000360: 5bb7 b33c afe9 303d 809a b33a 3480 3d3c
00000370: f166 193d 0132 dd3b 83e8 6a3d f031 9fbd
00000380: 805a 22bc 51b7 6bbf 9938 06bb a2fb a73c
00000390: 637a 29bb aa5d bd3b 48ba c83c ceb4 d53c
000003a0: 9f92 cb3c f127 6c3d c153 1d3c 6076 9eba
000003b0: c012 173c 8411 423b 8a67 9e39 5b9a 913d
000003c0: ef13 7b3d b327 303c 6dd8 aa3d 5a22 863d
000003d0: 07e3 1b3c 2253 8d3c 31fc 823d 1bf6 e13c
000003e0: 32c8 833c 314a 5b3c c339 2f3d cd35 a73b
000003f0: bb6f 6abf 9779 063c e819 b33c 3c53 753c

network.fc2.weight f4 [64, 64]
0.13380237 -0.5896378 0.06700193 0.21678537 0.03297232 0.23887941 0.016087674 0.2007456
0.041049976 0.09119333 0.25058606 0.2467613 0.28355518 -0.5700857 0.052162476 0.2853951
0.22450726 0.15225738 0.2780507 0.101580776 0.15925196 0.17263898 -0.6477225 0.24544512
0.24214856 0.17176259 -0.6201547 0.22532107 0.15651874 0.24256043 0.14734022 0.30431753
0.21659133 -0.5859021 0.15301497 0.1252465 -0.60078704 0.1612878 0.014859948 0.22298302
0.2634392 -0.65418416 0.21138413 -0.620842 0.26463047 0.3060264 0.101679996 0.19830714
0.20690642 0.031529654 0.17108518 0.25320706 0.2101334 0.2331907 0.12119264 0.18407585
0.19609666 0.23488426 0.17787747 0.22792372 0.022807537 0.26244384 0.19223915 -0.6349024
-0.015123693 0.09606325 0.00046538247 0.086029224 -0.013637478 -0.04825071 -0.005262134 -0.17587022
-0.0030592852 -0.0042201276 1.6440808 -0.08456448 0.05862994 -0.107434 -0.024805773 -0.12087081
-0.12801307 -0.014291431 0.09405874 -0.07442013 -0.02183868 0.0019305801 0.1390243 -0.090280436
-0.21723598 -0.060014877 0.012719108 -0.1143345 -0.0010967432 -0.1661168 -0.015617787 -0.17707998
-0.03690082 -0.009414082 -0.019902864 -0.013584252 0.043010965 -0.018196464 -0.0045550168 0.048938293
-0.38233015 0.22883527 -0.092287585 0.08394215 0.03588976 1.7434419 -0.038073488 -0.13451098
-0.13287014 -0.008656342 -0.022104634 -0.006616747 -0.14429872 -0.043360107 -0.030109262 -0.13948236
-0.07329394 -0.12799436 0.08907018 -0.09567109 -0.004516076 -0.18255977 -0.1253975 0.17548722
0.022896152 -0.28965193 0.030683482 0.001456926 0.005571232 -0.009449257 0.0071997754 0.012569754
0.0038608257 0.013554646 0.024877803 0.0036704366 0.08826834 0.024890915 0.0077267983 0.015991826
0.05362816 0.04092543 0.078462124 0.025427839 0.012537645 0.02332823 -0.18070717 0.014478914
0.055089533 0.02083411 -0.05932129 0.033701815 0.010288538 0.015067153 0.019825181 0.118871234
0.02109992 0.049642168 0.011625761 0.0096532535 0.099709325 0.02143991 0.0053199674 -0.05116425
0.09986618 -0.21272953 0.027309237 -0.2300072 -0.08511425 0.018152563 0.046318416 0.0040521068
0.14411354 0.003736819 0.019746307 0.084122956 0.054679953 0.021343967 0.014767107 0.03364072
-0.13026288 0.027151434 0.031462964 0.022863712 -0.0033832537 0.026127342 0.054333687 -0.09177083
-0.17528489 0.45798627 0.0073854676 0.111992076 0.6894338 -0.095677644 -0.042941213 -0.08161133
-0.052503668 -0.12980779 -0.064943485 -0.27334973 -0.3155363 0.5704558 -0.046703164 -0.43953508
-0.24470486 -0.16300844 0.16150275 0.020079637 -0.1926875 1.0835248 0.3189537 -0.19776821
-0.124979526 -0.10447727 0.4801785 0.16468439 -0.15496992 -0.049448732 -0.16242489 -0.20320341
-0.25265628 0.5030392 -0.19521275 -0.16046546 0.48755947 -0.19328648 -0.030376254 0.0040994966
-0.45525968 0.341132 0.06881003 0.3828594 0.34002417 -0.20462847 0.0880763 -0.13144995
-0.1495873 -0.042723358 -0.20814419 -0.08479964 -0.17011663 -0.27945185 -0.14924999 0.0018669838
0.15003575 0.027620232 0.014936464 -0.11757378 0.00080185314 -0.36087778 0.76409703 0.45735252
00000000: 7d03 093e 81f2 16bf 4f38 893d fcfc 5d3e
00000010: fc0d 073d ce9c 743e 4cca 833c 4190 4d3e
00000020: 0524 283d 92c3 ba3d d14c 803e ffae 7c3e
00000030: 252e 913e 23f1 11bf 52a8 553d 4e1f 923e
00000040: 3be5 653e 5ce9 1b3e a95c 8e3e 9509 d03d
00000050: f212 233e 46c8 303e 24d1 25bf f755 7b3e
00000060: cbf5 773e 88e2 2f3e 75c2 1ebf 91ba 663e
00000070: 7346 203e c361 783e 5be0 163e 82cf 9b3e
00000080: 1eca 5d3e aefd 15bf f5af 1c3e 9e40 003e
00000090: 2ecd 19bf a128 253e 2477 733c a955 643e
000000a0: 81e1 863e 9d78 27bf 1575 583e 80ef 1ebf
000000b0: a57d 873e 7eaf 9c3e 9a3d d03d 0711 4b3e
000000c0: 47df 533e 3d25 013d f430 2f3e 5ba4 813e
000000d0: 362d 573e 8bc9 6e3e d933 f83d 617e 3c3e
000000e0: 90cd 483e 8085 703e 8325 363e d664 693e
000000f0: dfd6 ba3c 0a5f 863e 57da 443e f788 22bf
00000100: 5ec9 77bc cfbc c43d 94fe f339 1730 b03d
00000110: bb6f 5fbc 89a2 45bd fb6d acbb 5317 34be
00000120: 4a7e 48bb ff48 8abb 3d71 d23f 2430 adbd
00000130: f325 703d 5b06 dcbd 7a35 cbbc 1d8b f7bd
00000140: dc15 03be 9b26 6abc dea1 c03d 9569 98bd
00000150: 08e7 b2bc 850b fd3a 635c 0e3e f3e4 b8bd
00000160: 1c73 5ebe 29d2 75bd ce63 503c 3528 eabd
00000170: 98c0 8fba 861a 2abe bfe1 7fbc 7454 35be
00000180: 5025 17bd 863d 1abc 550b a3bc 7c90 5ebc
00000190: 442c 303d c010 95bc 4042 95bb 8573 483d
000001a0: c7c0 c3be cb53 6a3e 4601 bdbd dde9 ab3d
000001b0: 2401 133d 1b29 df3f f2f2 1bbd 3fbd 09be
000001c0: 1c0f 08be 54d3 0dbc c714 b5bc 4cd1 d8bb
000001d0: 0bc3 13be 5e9a 31bd b3a7 f6bc 77d4 0ebe
000001e0: 221b 96bd f410 03be 6d6a b63d 34ef c3bd
000001f0: 97fb 93bb f3f0 3abe 3468 00be ecb2 333e
00000200: b690 bb3c 424d 94be ed5b fb3c 53f6 be3a
00000210: e28e b63b 0ed1 1abc 18ec eb3b 5ff1 4d3c
00000220: e805 7d3b 4e14 5e3c 89cc cb3c b58b 703b
00000230: 08c6 b43d 08e8 cb3c 1531 fd3b 4a01 833c
00000240: 34a9 5b3d 6ca1 273d c0b0 a03d 0b4e d03c
00000250: b26a 4d3c d81a bf3c 4d0b 39be f838 6d3c
00000260: 90a5 613d 4cac aa3c e2fa 72bd ea0a 0a3d
00000270: 4291 283c 38dc 763c 6b68 a23c c372 f33d
00000280: bdd9 ac3c 9655 4b3d fa79 3e3c ae28 1e3c
00000290: 6734 cc3d c0a2 af3c 1f53 ae3b 9b91 51bd
000002a0: a486 cc3d c5d5 59be 9fb7 df3c 0287 6bbe
000002b0: 6150 aebd afb4 943c 61b8 3d3d 89c7 843b
000002c0: 8092 133e 6be5 743b 02c3 a13c a848 ac3d
000002d0: 16f8 5f3d 8bd9 ae3c bcf1 713c daca 093d
000002e0: a263 05be af6c de3c 4fdf 003d ae4c bb3c
000002f0: 94b9 5dbb 0209 d63c 008d 5e3d 58f2 bbbd
00000300: e27d 33be 2d7d ea3e cb01 f23b 1a5c e53d
00000310: bc7e 303f a4f2 c3bd 20e3 2fbd d723 a7bd
00000320: 160e 57bd 55ec 04be 1701 85bd 7ff4 8bbe
00000330: f98d a1be 6409 123f d14b 3fbd be0a e1be
00000340: e993 7abe afeb 26be fa60 253e 0d7e a43c
00000350: df4f 45be f1b0 8a3f e64d a33e c083 4abe
00000360: 44f5 ffbd 2ef8 d5bd f5d9 f53e 06a3 283e
00000370: 6fb0 1ebe c18a 4abd b652 26be 8e14 50be
00000380: 2a5c 81be 2dc7 003f dae5 47be 0f51 24be
00000390: 65a1 f93e e4ec 45be 9fd7 f8bc 1255 863b
000003a0: cc17 e9be daa8 ae3e 46ec 8c3d 2606 c43e
000003b0: a617 ae3e 208a 51be 5961 b43d d19a 06be
000003c0: 6a2d 19be b0fe 2ebd c023 55be 6fab adbd
000003d0: 0e33 2ebe 5014 8fbe fdd4 18be 95b5 f43a
000003e0: f9a2 193e d343 e23c 12b8 743c 86ca f0bd
000003f0: 7433 523a f9c4 b8be dd9b 433f 1c2a ea3e

network.fc3.weight f4 [64, 64]
-0.002823045 0.08933205 0.018159904 0.03489263 0.01834591 0.025768725 -0.039676636 -0.005570192
0.045731418 0.080354884 0.18121709 -0.0077503296 0.04072383 0.092168696 0.022654532 0.072302505
0.09701171 0.037162997 -0.0059701507 0.18564783 0.22054121 0.10737751 0.13040309 0.013648495
0.023231871 0.18823144 -0.03084681 0.019233428 -0.04406021 0.017526552 0.014582747 0.05750852
0.09844736 -0.0011901086 -0.00520193 0.043185245 0.7643729 0.13000356 0.031354886 0.028382862
0.09244934 -0.04771939 0.07585872 0.0218462 0.023402113 0.096730955 0.08532306 0.03282507
0.0065092347 0.013142307 -0.015458857 -0.9597188 0.013665697 0.004101052 0.098957054 0.002029608
0.02350249 0.024169823 0.025082398 -0.012580908 0.025605183 0.09780125 0.037735637 0.54388607
0.0033596775 0.16703416 0.46107534 0.009301647 0.058888447 0.44375443 -0.1113611 -0.020659767
0.5019048 0.06738429 -0.055896502 -1.1845077 0.4980527 0.08393604 0.44547477 0.09258715
0.40514463 0.029667411 0.03768114 0.094845995 0.068370186 -0.005377836 0.21590249 0.3172433
0.44226402 0.06682704 -1.1477336 0.43284103 -1.2501509 -0.5870517 0.081061356 0.16015255
0.3338379 -0.011992091 -0.5287162 0.07574546 0.010873379 0.033013213 0.082015045 0.015486072
-0.5602906 -1.1257334 0.12480686 0.41269118 0.43968475 0.16009668 0.5158906 0.45558283
-0.96366 0.4377441 -0.106921285 -0.1966457 0.33764637 0.07784365 -0.044882566 0.42426088
0.45281655 0.39965767 0.3930131 0.0633667 0.40336385 0.09127181 0.046955477 -0.17437485
-0.0017061773 -0.0694321 -0.16513123 -0.00533433 -0.014475313 -0.15176323 0.03209634 0.2937985
-0.18384083 -0.0019087185 0.015378276 0.2618987 -0.18216339 0.02800056 -0.1468789 -0.009509676
-0.15375473 0.008444561 -0.0055389795 0.05901845 0.22031963 0.03360502 -0.0038179895 -0.09924616
-0.13744953 0.000947017 0.24526481 -0.14777608 0.2930736 0.24644126 0.0072662155 -0.021791765
-0.08497492 0.022804515 0.0066102855 -0.0118825575 0.081481755 -0.002150799 0.0092405435 -0.0006798572
0.21707998 0.16689253 0.0075958483 -0.13553907 -0.15960783 -0.008100519 -0.16027997 -0.14425988
0.1735447 -0.15630968 -0.084562935 0.05062757 -0.108052306 0.004942982 -0.04719464 -0.13651222
-0.15150967 -0.14372663 -0.13724144 -0.014733856 -0.14542642 -0.019922901 0.005958827 0.031010237
-3.045094e-05 0.03832594 0.043676704 -0.0013734635 0.0013348113 0.021753876 -0.02024514 -0.0019879278
0.040682573 0.024419097 0.0034688327 -0.059842963 0.03254869 0.018305704 0.035000414 0.022640347
0.039740648 0.017276626 0.0038617575 0.059524465 0.14603232 -0.021093333 0.10778198 0.026150523
0.021106595 0.045505673 -0.01592953 0.023769315 0.04449017 -0.10988561 -0.0086118495 0.03995408
0.05884341 -0.036345795 -0.00028592645 0.019334216 0.17513667 -0.008490676 0.012967615 -0.008717843
0.14068666 -0.02044147 0.022545863 0.027447943 0.023230387 0.041232724 0.051572893 0.03456418
-0.008827963 0.0380377 -0.09828434 0.06872538 0.024626818 -0.0036825952 0.07204977 0.041775595
0.015560629 0.023785807 0.03250765 0.010090244 0.02754478 0.007414954 -0.0012388785 0.08603575
00000000: d602 39bb b9f3 b63d 14c4 943c 93eb 0e3d
00000010: 294a 963c ef18 d33c f883 22bd 2886 b6bb
00000020: de50 3b3d 1a91 a43d f990 393e 7af6 fdbb
00000030: 08ce 263d f1c2 bc3d ff95 b93c 5613 943d
00000040: 13ae c63d 3a38 183d 41a1 c3bb 771a 3e3e
00000050: 8ed5 613e bde8 db3d 6388 053e f09d 5f3c
00000060: c450 be3c bebf 403e 73b2 fcbc 6c8f 9d3c
00000070: 7b78 34bd d893 8f3c 79ec 6e3c 0e8e 6b3d
00000080: c59e c93d 6bfd 9bba f474 aabb 03e3 303d
00000090: f1ad 433f a71f 053e fb6d 003d 2d83 e83c
000000a0: 1456 bd3d 6875 43bd d15b 9b3d cdf6 b23c
000000b0: cab5 bf3c e11a c63d dbbd ae3d 9573 063d
000000c0: 6b4b d53b d552 573c 2547 7dbc 22b0 75bf
000000d0: 16e6 5f3c 1e62 863b ffa9 ca3d 2c03 053b
000000e0: 4b88 c03c cbff c53c 9a79 cd3c 2720 4ebc
000000f0: f6c1 d13c 064c c83d af90 1a3d 1e3c 0b3f
00000100: 092e 5c3b 010b 2b3e 1112 ec3e ef65 183c
00000110: 0335 713d c833 e33e 4a11 e4bd ac3e a9bc
00000120: d57c 003f c600 8a3d bbf3 64bd f39d 97bf
00000130: c300 ff3e a9e6 ab3d 4515 e43e 559e bd3d
00000140: 1e6f cf3e 1209 f33c 8a57 1a3d 9e3e c23d
00000150: ab05 8c3d 8f38 b0bb 8b15 5d3e b76d a23e
00000160: 6e70 e23e 9ddc 883d efe8 92bf 579d dd3e
00000170: f204 a0bf 0549 16bf 7f03 a63d 08ff 233e
00000180: cdec aa3e 7a7a 44bc f259 07bf 7020 9b3d
00000190: 4226 323c dd38 073d 81f7 a73d 4bb9 7d3c
000001a0: 346f 0fbf 0818 90bf bd9a ff3d 424c d33e
000001b0: 5c1e e13e 62f0 233e 6811 043f 2742 e93e
000001c0: 6cb2 76bf ff1f e03e 8cf9 dabd 7e5d 49be
000001d0: fcdf ac3e 7e6c 9f3d c8d6 37bd b938 d93e
000001e0: 92d7 e73e ee9f cc3e 0339 c93e 67c6 813d
000001f0: b585 ce3e b7ec ba3d 6354 403d 528f 32be
00000200: cfa1 dfba 6b32 8ebd 2918 29be 9acb aebb
00000210: dd29 6dbc d267 1bbe 7477 033d c26c 963e
00000220: c540 3cbe f72d faba 2af5 7b3c 9617 863e
00000230: 0a89 3abe 6e61 e53c 6c67 16be 79ce 1bbc
00000240: e171 1dbe 0e5b 0a3c 5480 b5bb 55bd 713d
00000250: 789b 613e 6ba5 093d 3c37 7abb 9241 cbbd
00000260: 92bf 0cbe 3c41 783a b326 7b3e 9d52 17be
00000270: be0d 963e 195b 7c3e 6f19 ee3b a584 b2bc
00000280: 5507 aebd 89d0 ba3c 189b d83b 0faf 42bc
00000290: e8df a63d 6bf4 0cbb a665 173c 7238 32ba
000002a0: 374a 5e3e e0e5 2a3e 98e6 f83b c1ca 0abe
000002b0: 3c70 23be 0ab8 04bc 6f20 24be ddb8 13be
000002c0: b4b5 313e a50f 20be 552f adbd db5e 4f3d
000002d0: 874a ddbd bdf8 a13b 2b4f 41bd dcc9 0bbe
000002e0: 5a25 1bbe 132d 13be 0589 0cbe 4566 71bc
000002f0: aaea 14be 5a35 a3bc 4442 c33b 2e09 fe3c
00000300: e570 ffb7 a9fb 1c3d 58e6 323d ca05 b4ba
00000310: d6f4 ae3a 2f35 b23c 23d9 a5bc e547 02bb
00000320: c5a2 263d 8f0a c83c 5b55 633b e51d 75bd
00000330: c651 053d d8f5 953c 985c 0f3d 4078 b93c
00000340: 17c7 223d b687 8d3c 8a15 7d3b edcf 733d
00000350: 7f89 153e edcb acbc ccbc dc3d 9f39 d63c
00000360: bde7 ac3c 2864 3a3d a57e 82bc deb7 c23c
00000370: 533b 363d b50b e1bd b718 0dbc e4a6 233d
00000380: ca05 713d 54df 14bd 66e8 95b9 ca62 9e3c
00000390: 0757 333e 7a1c 0bbc 1f76 543c 49d5 0ebc
000003a0: 2a10 103e df74 a7bc 1ab2 b83c 82da e03c
000003b0: a74d be3c a5e3 283d 193e 533d 2b93 0d3d
000003c0: 29a3 10bc 6bcd 1b3d 4d49 c9bd e4bf 8c3d
000003d0: 2ebe c93c b257 71bb d48e 933d e31c 2b3d
000003e0: 02f2 7e3c 74da c23c be26 053d 8d51 253c
000003f0: 97a5 e13c 24f9 f23b dd61 a2ba 8333 b03d

network.fc4.weight f4 [64, 64]
-0.19251253 0.91892827 -0.22142558 -0.38239816 -0.37724224 -0.48104426 -0.43143523 -0.5145895
1.006308 0.23638107 -0.34620884 1.2735071 1.3132685 -0.027642354 -0.2084666 -0.41381258
-0.38062078 -0.15700155 -0.40353265 0.9681676 -0.6180997 -0.4957946 -0.4460101 1.4367769
0.21475297 1.1716719 0.21534455 -0.2703255 -0.44505864 -0.5090379 -0.38574228 -0.45714656
-0.46408415 -0.46643424 1.2264761 -0.39033028 -0.3685775 -0.03777907 -0.4245229 1.0589149
-0.21980947 -0.3572142 1.1525806 0.73935413 0.9842069 -0.065531105 -0.37328795 -0.47315654
-0.048527002 -0.41995966 -0.16060679 -0.45233747 -0.41214767 -0.07016295 1.2646698 1.0863743
1.2860476 -0.41613197 1.1819048 -0.0447969 -0.16134861 -0.38821483 -0.47862047 -0.26675949
-0.013179032 0.003124153 -0.0093936585 -0.015809296 -0.01682067 -0.017200362 -0.01565837 -0.011639834
0.025674323 0.017278075 -0.007874833 0.034220245 0.035624754 -0.009405969 -0.008961217 -0.013725333
-0.014485261 -0.0062631364 -0.010423702 0.020999048 -0.017753627 -0.017742252 -0.014265722 0.0030852999
0.018014971 0.026492037 -0.0008562972 0.014756448 -0.01718421 -0.016854875 -0.013470945 -0.018170286
-0.015264686 -0.01835387 0.034992173 -0.016335983 -0.013985592 -0.004846408 -0.014937108 0.020317497
-0.014469837 -0.014830555 0.03360036 0.018664477 0.0030779855 -0.011682227 -0.01639108 -0.015874084
0.0027671435 -0.01767329 -0.0046165795 -0.017941525 -0.01842297 -0.0063156406 0.029364517 0.03046494
0.031594537 -0.017435761 0.032277804 -0.010434165 -0.0053674327 -0.011940167 -0.01859695 -0.0054861973
0.00571936 -0.0018046701 0.0034564862 0.0042284573 0.0055988035 0.008596995 0.007907561 0.007816199
-0.022163551 -0.008738919 0.005003579 -0.018513016 -0.025993155 0.00016623273 0.006946083 0.0050371606
0.006665553 0.0031530159 0.008426015 -0.021623002 0.008731224 0.011274777 0.008086791 -0.009607996
0.025838858 -0.024158513 0.0049061207 0.005011957 0.004866307 0.0077135726 0.0070341825 0.007590687
0.0077982577 0.0072281854 -0.025981193 0.006827398 0.006467279 0.004290479 0.0075800815 -0.024143588
-0.015590192 0.0076960707 -0.020256301 -0.016146708 -0.0020848494 0.008265187 0.006902215 0.0079937475
0.0010029814 0.006954458 0.00011233134 0.004862366 0.008436804 0.003385588 -0.023075823 -0.019415595
-0.019941596 0.008054738 -0.018361505 0.0025318502 0.0036653513 0.005756067 0.008461821 0.0019738292
-0.09831331 -0.92694896 -0.37774053 -0.38259295 -0.63326883 -0.5986701 -0.5379216 -0.43239006
1.4397086 0.95143884 -0.6999198 1.8619288 1.8944374 -0.05528127 -0.39151174 -0.5282113
-0.46139926 -0.10137791 -0.83959395 1.3037138 -0.6060468 -0.632216 -0.50505817 2.0875707
1.0397344 1.6105636 -1.038422 0.7524868 -0.59092116 -0.61429137 -0.4424585 -0.6602719
-0.56159425 -0.5854329 1.706234 -0.6222372 -0.4921639 -0.049923535 -0.5279585 1.4395472
-0.09940309 -0.54660624 1.6759465 1.2559644 1.3128512 -0.9349629 -0.5394862 -0.5586361
0.42126518 -0.6194331 -0.35191828 -0.5511505 -0.56698745 -0.07380574 1.9116656 1.7322528
1.8914309 -0.5841044 1.6114842 0.063418865 -0.40837273 -0.50648564 -0.6014565 -0.14155094
00000000: 0122 45be e23e 6b3f 63bd 62be b1c9 c3be
00000010: e525 c1be 6f4b f6be 14e5 dcbe 23bc 03bf
00000020: b3ce 803f e10d 723e 4942 b1be 4802 a33f
00000030: 2f19 a83f 3872 e2bc 4578 55be 3edf d3be
00000040: bae0 c2be 04c5 20be d59b cebe d5d9 773f
00000050: c83b 1ebf cad8 fdbe 705b e4be 4ee8 b73f
00000060: 34e8 5b3e 58f9 953f 4883 5c3e 1b68 8abe
00000070: bade e3be 4f50 02bf 0380 c5be 1d0f eabe
00000080: 709c edbe 78d0 eebe 2bfd 9c3f 5fd9 c7be
00000090: 31b6 bcbe 3abe 1abd 115b d9be 868a 873f
000000a0: bc15 61be c8e4 b6be c387 933f 5046 3d3f
000000b0: fcf4 7b3f 2c35 86bd 991f bfbe 9341 f2be
000000c0: 40c4 46bd f404 d7be 1b76 24be c798 e7be
000000d0: 0505 d3be 98b1 8fbd b3e0 a13f 500e 8b3f
000000e0: 359d a43f 400f d5be a848 973f f47c 37bd
000000f0: 9238 25be 18c4 c6be be0d f5be b394 88be
00000100: deec 57bc 97be 4c3b dce7 19bc 7f82 81bc
00000110: 80cb 89bc c6e7 8cbc fb45 80bc 01b5 3ebc
00000120: f552 d23c c08a 8d3c 7205 01bc 872a 0c3d
00000130: 43eb 113d 7e1b 1abc 11d2 12bc 38e0 60bc
00000140: 9753 6dbc ff3a cdbb 2dc8 2abc 3206 ac3c
00000150: 0e70 91bc 3358 91bc c6ba 69bc be32 4a3b
00000160: 2294 933c d405 d93c 2279 60ba 07c5 713c
00000170: e6c5 8cbc 3c13 8abc 3db5 5cbc dad9 94bc
00000180: bc18 7abc db5a 96bc f453 0f3d 0ad3 85bc
00000190: d323 65bc 9ece 9ebb c6ba 74bc e170 a63c
000001a0: e512 6dbc dbfb 72bc 88a0 093d 3fe6 983c
000001b0: 07b8 493b d066 3fbc 9646 86bc 5e0a 82bc
000001c0: f758 353b 93c7 90bc ad46 97bb 1bfa 92bc
000001d0: c5eb 96bc 6ff3 cebb db8d f03c 9c91 f93c
000001e0: 4669 013d 71d5 8ebc bb35 043d 0ff4 2abc
000001f0: 4ae1 afbb b1a0 43bc a258 98bc 8fc5 b3bb
00000200: 7869 bb3b ae8a ecba 3786 623b df8e 8a3b
00000210: 2b76 b73b 69da 0c3c b78e 013c 840f 003c
00000220: 5690 b5bc af2d 0fbc 10f5 a33b 9ca8 97bc
00000230: 99ef d4bc c24e 2e39 f89b e33b c40e a53b
00000240: b66a da3b d4a2 4e3b 450d 0a3c b922 b1bc
00000250: 680d 0f3c d8b9 383c 767e 043c db6a 1dbc
00000260: 03ac d33c 13e8 c5bc 86c3 a03b 583b a43b
00000270: 8b75 9f3b 23c2 fc3b 007f e63b 4cbb f83b
00000280: 8788 ff3b 6ada ec3b 83d6 d4bc 5eb8 df3b
00000290: 78eb d33b 2597 8c3b 5562 f83b c6c8 c5bc
000002a0: 016e 7fbc 522f fc3b 8bf0 a5bc 1a46 84bc
000002b0: f8a1 08bb b56a 073c fa2b e23b 35f8 023c
000002c0: 7976 833a 39e2 e33b 6e93 eb38 7b54 9f3b
000002d0: 853a 0a3c bee0 5d3b 8209 bdbc 740d 9fbc
000002e0: 8f5c a3bc 05f8 033c de6a 96bc 66ed 253b
000002f0: 6436 703b 649d bc3b 73a3 0a3c 5c5b 013b
00000300: 7d58 c9bd 874c 6dbf 3567 c1be 39e3 c3be
00000310: e81d 22bf 7242 19bf 3bb5 09bf 3b62 ddbe
00000320: 5f48 b83f 7f91 733f f22d 33bf af53 ee3f
00000330: ed7c f23f 9d6e 62bd 3a74 c8be db38 07bf
00000340: 863c ecbe 399f cfbd a1ef 56bf 18e0 a63f
00000350: e225 1bbf e8d8 21bf 7e4b 01bf c29a 0540
00000360: 0416 853f f326 ce3f 03eb 84bf faa2 403f
00000370: 9c46 17bf 3342 1dbf ec89 e2be 9407 29bf
00000380: a4c4 0fbf eede 15bf e065 da3f f04a 1fbf
00000390: e8fc fbbe 9f7c 4cbd 4a28 07bf 1543 b83f
000003a0: d993 cbbd 63ee 0bbf 6a85 d63f 71c3 a03f
000003b0: 820b a83f bb59 6fbf c51b 0abf c702 0fbf
000003c0: 12b0 d73e 2b93 1ebf a22e b4be 3318 0dbf
000003d0: 1726 11bf 7727 97bd 75b1 f43f 76ba dd3f
000003e0: 681a f23f de87 15bf 1d45 ce3f c0e1 813d
000003f0: 3b16 d1be 0ba9 01bf 0ef9 19bf bbf2 10be

network.fc_5.weight f4 [1, 64]
-0.018223954 0.12209129 -0.15495442 -0.013072267 0.12376768 -0.046849567 -0.06851436 -0.077000424
0.12280887 -0.32520208 0.12362763 0.072137624 -0.0039807735 0.12231732 -0.002705229 -0.011766652
0.12082875 0.10391403 -0.047174174 -0.04904084 -0.044571668 0.12352625 -0.07990388 0.07653391
0.15208367 -0.0037351283 0.077845916 0.12312916 0.07967043 0.07021123 -0.18746321 0.22443601
-0.07738477 -0.07283188 -0.07927158 -0.00452438 0.12285697 -0.110278085 0.07744588 0.12236439
-0.13033329 0.096253455 0.07010792 -0.031207735 0.121565185 0.12258196 -0.09848964 -0.0049906685
-0.079317585 -0.0034882207 0.12336011 0.12375113 0.09380311 -0.0033962033 0.12184447 -0.10919398
-0.10901762 -0.006173281 -0.09797754 -0.08785867 0.12385112 -0.08932948 0.12306173 -0.004593585
00000000: 674a 95bc 000b fa3d 5fac 1ebe 102d 56bc
00000010: e979 fd3d 55e5 3fbd 4251 8cbd 66b2 9dbd
00000020: 3883 fb3d e380 a6be 7c30 fd3d e4bc 933d
00000030: 2671 82bb 8181 fa3d 364a 31bb eac8 40bc
00000040: 1075 f73d e1d0 d43d b539 41bd 0cdf 48bd
00000050: c890 36bd 55fb fc3d a5a4 a3bd d0bd 9c3d
00000060: d2bb 1b3e 0ec9 74bb ae6d 9f3d 242b fc3d
00000070: 402a a33d e8ca 8f3d 5bf6 3fbe 8ed2 653e
00000080: e87b 9ebd e128 95bd 2359 a2bd 4041 94bb
00000090: 6f9c fb3d 7ad9 e1bd f29b 9e3d 2e9a fa3d
000000a0: 1776 05be 8820 c53d be94 8f3d 5da7 ffbc
000000b0: 2bf7 f83d 400c fb3d f0b4 c9bd c388 a3bb
000000c0: 4271 a2bd a29a 64bb 3aa4 fc3d 3c71 fd3d
000000d0: d81b c03d d692 5ebb 9889 f93d 18a1 dfbd
000000e0: a144 dfbd 3c49 cabb 73a8 c8bd 3fef b3bd
000000f0: a8a5 fd3d 60f2 b6bd ca07 fc3d c985 96bb

exp_avg f4 [64, 2]
6.590117e-07 -5.2671965e-07 -2.4094556e-06 2.6250166e-06 -2.771386e-06 3.3619879e-06 -4.768499e-07 6.392497e-08
-8.987877e-07 -3.6139136e-07 -1.3597374e-06 3.1028444e-06 -5.670627e-07 -2.8470652e-07 9.2423576e-08 -9.214477e-07
2.62914e-06 2.707043e-07 -1.4089787e-05 -1.1681064e-07 -6.0583966e-07 6.6512274e-07 -8.6880624e-07 5.977836e-07
-6.7195367e-07 4.6179656e-07 4.9461244e-07 1.4548233e-06 -1.662805e-05 -2.9673516e-05 3.3770953e-06 -1.0413919e-06
1.5376178e-05 -9.33126e-06 1.2535193e-06 1.1906532e-06 1.1976141e-06 -2.7382923e-06 -2.4320555e-06 1.7414309e-06
1.22818865e-05 3.878733e-07 2.4211357e-07 1.9692106e-06 -1.5978996e-07 4.0454563e-07 3.1377553e-05 -1.1118261e-05
-1.0085305e-06 -2.1338194e-06 1.7363498e-05 -2.4495153e-06 -9.1470465e-06 2.1546232e-06 1.4061002e-06 4.983943e-07
-5.0810473e-07 1.1519622e-06 -8.494353e-07 -4.3391498e-07 -1.5724067e-06 -2.6190335e-06 2.1497297e-06 -4.2071912e-07
-2.9717073e-06 -3.4120072e-05 -3.649035e-06 -9.288681e-06 -3.9405373e-07 1.3148056e-06 4.35604e-07 1.6465375e-06
1.5564356e-06 5.2631603e-06 -7.609165e-07 -1.6502321e-06 -1.1513409e-06 -1.0709674e-06 -4.1762896e-06 -6.257992e-06
3.4097318e-06 -1.1017049e-06 -1.500949e-06 -2.0472446e-06 8.4589016e-07 1.3892105e-06 6.657329e-07 2.466496e-06
-4.408168e-06 -1.6825502e-06 1.689646e-07 1.2971857e-06 -2.284256e-07 -6.2371174e-07 -3.2505798e-06 7.288971e-07
-6.511742e-07 -7.560835e-07 -7.554289e-06 -1.7230154e-06 -5.0442345e-06 1.5483143e-06 -1.5243897e-06 -1.6062475e-07
1.0130642e-06 1.1336404e-06 -1.4123307e-06 -7.583207e-07 -1.8327219e-06 4.1112784e-07 -2.380692e-06 -1.4810298e-07
2.4945524e-07 -3.251551e-08 5.242123e-07 8.665524e-07 -1.5882416e-06 -3.6051038e-09 -6.4860257e-07 -6.3092494e-07
-7.846584e-07 1.4051676e-06 -5.976177e-08 -3.737979e-07 4.371911e-08 7.163397e-07 2.6705163e-07 -1.4341242e-07
00000000: f0e6 3035 e663 0db5 22b2 21b6 7129 3036
00000010: 0dfc 39b6 839e 6136 e000 00b5 2047 8933
00000020: 3844 71b5 4005 c2b4 3980 b6b5 763a 5036
00000030: 4138 18b5 c4d9 98b4 667a c633 6759 77b5
00000040: 4870 3036 5155 9134 2d63 6cb7 54d9 fab3
00000050: fca0 22b5 e38a 3235 e937 69b5 6077 2035
00000060: 4e60 34b5 d6ec f734 82c5 0435 5943 c335
00000070: 777c 8bb7 64eb f8b7 0ea2 6236 f4c5 8bb5
00000080: 17fc 8037 758d 1cb7 983e a835 88ce 9f35
00000090: b5bd a035 81c3 37b6 6536 23b6 1cbb e935
000000a0: 4d0e 4e37 e73c d034 d6fb 8134 c826 0436
000000b0: bb92 2bb4 5430 d934 649b 0338 9188 3ab7
000000c0: d85c 87b5 bd32 0fb6 d4a7 9137 5a62 24b6
000000d0: 4476 19b7 2598 1036 3cb9 bc35 65c9 0535
000000e0: b164 08b5 1f9d 9a35 c004 64b5 d2f4 e8b4
000000f0: 7c0b d3b5 a7c2 2fb6 1344 1036 32df e1b4
00000100: 8b6d 47b6 261c 0fb8 f2e1 74b6 95d6 1bb7
00000110: 558e d3b4 6078 b035 f5dc e934 99fe dc35
00000120: b8e6 d035 349a b036 c941 4cb5 8b7d ddb5
00000130: c687 9ab5 29be 8fb5 0e22 8cb6 befb d1b6
00000140: bfd2 6436 4bde 93b5 3774 c9b5 6563 09b6
00000150: 2111 6335 e974 ba35 d1b4 3235 1486 2536
00000160: e0e9 93b6 fcd3 e1b5 a36c 3534 f61a ae35
00000170: 2745 75b4 256d 27b5 8924 5ab6 6da9 4335
00000180: 5acc 2eb5 aaf5 4ab5 d97a fdb6 5c42 e7b5
00000190: a541 a9b6 adcf cf35 a299 ccb5 3278 2cb4
000001a0: 9ff8 8735 9627 9835 508f bdb5 678f 4bb5
000001b0: d8fb f5b5 fbb8 dc34 fac3 1fb6 3d06 1fb4
000001c0: deec 8534 2ea7 0bb3 98b7 0c35 079d 6835
000001d0: 912b d5b5 a8bd 77b1 a11b 2eb5 d55c 29b5
000001e0: 51a1 52b5 3199 bc35 6156 80b3 64ae c8b4
000001f0: abc5 3b33 7d4a 4035 4c5f 8f34 e8fc 19b4

exp_avg_sq f4 [64, 2]
7.322725e-11 1.6804058e-10 3.6749134e-10 2.2399478e-09 3.133579e-10 2.2973223e-09 1.09644634e-10 1.0667447e-09
1.1098349e-10 4.686875e-10 1.3972863e-10 1.1573998e-09 1.1958909e-10 5.269754e-10 1.00143824e-10 3.3429282e-10
2.1483394e-10 1.633371e-10 3.7368935e-08 2.438733e-07 1.1773518e-10 5.40029e-10 1.1929999e-10 1.416291e-09
1.0629233e-10 5.164847e-10 8.6741295e-11 2.5421382e-10 2.9927683e-08 2.11318e-07 1.990768e-10 1.4605983e-10
7.3582065e-08 4.4757104e-07 1.1186457e-10 3.7549017e-10 6.8442556e-12 1.9173028e-10 3.6716422e-10 2.1787339e-09
3.3409627e-08 2.254293e-07 8.7748274e-11 2.6061325e-10 1.2154577e-10 5.4304927e-10 8.351304e-08 5.1494067e-07
1.25702e-10 1.3451785e-09 2.6329245e-08 1.5881722e-07 4.3346997e-09 2.2413454e-08 9.6196225e-11 3.0934127e-10
7.658976e-11 6.205545e-10 1.2332722e-10 5.504961e-10 1.2320375e-10 1.5908803e-09 2.1593519e-10 1.546735e-10
3.5101678e-08 2.3232019e-07 2.9376732e-09 4.0031253e-08 7.098315e-11 1.7852839e-10 1.0152901e-10 5.6924937e-10
3.0658194e-09 1.6929517e-08 1.3366325e-10 8.1711554e-10 6.64908e-11 8.749394e-10 1.7269273e-09 1.06730464e-08
1.0119298e-09 5.830753e-09 2.066703e-10 1.8715414e-09 1.0717452e-10 4.6098161e-10 7.0860554e-11 1.7453695e-10
1.2889414e-09 7.0602018e-09 1.2742146e-10 3.1549321e-10 8.304672e-11 2.0824231e-10 1.8960014e-10 1.7572115e-09
5.5529113e-11 9.114874e-10 1.879263e-09 1.1162104e-08 4.8120846e-10 2.4228721e-09 1.377692e-10 1.6165803e-09
1.0044817e-10 3.3504952e-10 1.2911494e-10 6.517535e-10 4.4325624e-10 2.4553914e-09 2.1122229e-10 1.8333501e-09
1.7629715e-09 1.0144951e-08 1.1529866e-10 5.5784777e-10 1.03220196e-10 1.31687e-09 5.1054168e-11 7.2513207e-10
1.0775678e-09 1.7380069e-08 1.2281096e-10 7.412546e-10 8.991322e-11 6.0514505e-10 9.689039e-11 3.821418e-10
00000000: 4707 a12e 38c3 382f cf07 ca2f 94ed 1931
00000010: 3445 ac2f ecde 1d31 711c f12e be9c 9230
00000020: 270e f42e f3d4 0030 1da2 192f 6312 9f30
00000030: 567d 032f 99da 1030 f637 dc2e 88c7 b72f
00000040: 6136 6c2f 4e97 332f 947f 2033 b1ed 8234
00000050: 8273 012f 2a71 1430 f62b 032f 4fa7 c230
00000060: 43bd e92e 61f8 0d30 02bf be2e 6ac1 8b2f
00000070: d689 0033 a6e6 6234 23e3 5a2f 3098 202f
00000080: 2b04 9e33 b249 f034 28fe f52e 8b6d ce2f
00000090: 93cf f02c 47cf 522f c5d9 c92f b1b8 1531
000000a0: 467e 0f33 890d 7234 e3f5 c02e 0e46 8f2f
000000b0: 18a4 052f b245 1530 c757 b333 743a 0a35
000000c0: f835 0a2f 43e1 b830 9f2a e232 5887 2a34
000000d0: 6cf0 9431 b587 c032 a989 d32e ea0f aa2f
000000e0: 346c a82e a493 2a30 8799 072f b851 1730
000000f0: c676 072f 20a6 da30 5a6c 6d2f b810 2a2f
00000100: b4c2 1633 b073 7934 18e0 4931 d4ee 2b33
00000110: f617 9c2e 464b 442f c043 df2e 5d79 1c30
00000120: 77ae 5231 676c 9132 dcf6 122f 659b 6030
00000130: fe36 922e 6380 7030 da58 ed30 8e5c 3732
00000140: 1d14 8b30 d957 c831 853c 632f 819c 0031
00000150: e4ad eb2e 656d fd2f f2d2 9b2e c9e7 3f2f
00000160: 9826 b130 3196 f231 f419 0c2f b971 ad2f
00000170: 269f b62e 00f7 642f b277 502f 6282 f130
00000180: 3938 742e 398c 7a30 5824 0131 74c3 3f32
00000190: 0946 0430 9e7f 2631 957a 172f 5d2e de30
000001a0: 4be3 dc2e 0732 b82f a0f6 0d2f 1327 3330
000001b0: c5ae f32f b4bb 2831 ca3d 682f 46f9 fb30
000001c0: 0c4d f230 f749 2e32 608b fd2e 0c57 1930
000001d0: cefb e22e 3efd b430 e289 602e a252 4730
000001e0: 8c19 9430 2d4b 9532 3608 072f 28c1 4b30
000001f0: a5b8 c52e 4c57 2630 7110 d52e ad15 d22f

exp_avg f4 [64, 64]
-9.2188475e-07 3.6556727e-07 3.573588e-07 1.1040705e-06 -4.0185995e-07 1.0882511e-06 -2.1053465e-06 -1.0483791e-06
-1.0061032e-06 -6.682149e-07 -7.7655864e-07 6.306555e-07 1.4887728e-07 -1.1115685e-06 -6.894468e-07 7.7907046e-08
-6.1981825e-07 8.136896e-08 1.8487738e-06 4.0689903e-07 2.2009202e-07 -1.8415753e-07 6.6357177e-07 -7.9034186e-07
-5.4840746e-07 1.1298448e-06 -1.0692282e-06 8.922792e-08 -5.324268e-07 -9.882772e-07 6.2831816e-07 -8.64269e-07
7.060864e-07 -1.8095451e-06 -2.6774483e-06 6.2392613e-10 -3.086942e-06 -1.6598009e-06 7.579677e-07 -7.2238225e-07
9.234601e-07 6.1054266e-07 -1.1726157e-06 -5.6931054e-07 -1.511914e-06 -9.02719e-07 -1.9197064e-06 2.1656263e-07
1.2937498e-06 -7.736802e-07 2.4342575e-07 2.2952766e-07 -1.8486583e-07 -3.6524983e-07 5.0016536e-07 5.52422e-08
-2.0364555e-06 -4.753128e-07 2.852476e-08 1.4196718e-08 1.8805819e-06 -4.905709e-07 -1.2517388e-07 -6.6280313e-07
5.548156e-07 2.6824168e-07 2.2567961e-07 2.331213e-06 -6.7821503e-07 -8.361929e-07 -4.284655e-07 -3.9933542e-07
-8.1156344e-08 -1.6042542e-06 -8.1061124e-08 1.5150317e-07 2.526574e-07 1.9246622e-06 -2.2677536e-07 -3.6825023e-07
7.873771e-07 1.4000273e-07 1.943755e-06 2.87985e-07 1.4229392e-06 3.4266918e-07 5.158334e-07 1.6190239e-06
9.31154e-07 -9.3147315e-07 -1.6547515e-06 -4.936741e-07 1.742474e-06 8.427276e-08 5.3716855e-07 3.398299e-07
-4.6354003e-07 9.291534e-07 1.2176824e-06 1.0725855e-06 4.83717e-07 -9.3872467e-07 1.3064144e-06 -1.8342021e-06
-1.6242456e-06 2.3150315e-07 7.2984204e-07 2.779301e-07 6.160882e-07 4.7404512e-07 5.378308e-08 3.6034544e-07
5.3309515e-07 6.7499576e-07 1.6968384e-07 9.337594e-07 -1.140366e-06 7.5618567e-07 1.823504e-07 3.0764065e-07
-1.9366276e-07 -7.0698724e-07 1.0341091e-06 1.3032868e-06 2.5312568e-07 -5.810873e-07 9.881558e-07 3.7099983e-07
1.0929482e-06 6.5018575e-08 2.2979563e-07 -2.2404711e-07 -1.5844509e-07 3.3902722e-06 -1.1499424e-06 -1.2789294e-06
3.6569634e-07 3.5483818e-06 -6.757729e-07 -7.978206e-07 1.7506221e-06 2.235541e-06 -1.7418629e-06 8.6174204e-08
-2.5175261e-06 3.2298606e-06 9.003887e-08 7.004911e-08 2.7561848e-06 3.5603236e-06 -3.4263937e-07 -1.851206e-06
-1.1741682e-06 2.7569251e-06 4.439129e-06 2.035124e-06 8.7902066e-07 -8.8776756e-07 -4.124963e-07 2.1398371e-07
3.0906142e-06 -1.3673401e-06 2.5092604e-06 2.619115e-06 5.066146e-06 -1.6180391e-07 8.439906e-08 -1.2108873e-06
-1.3323158e-07 1.03988896e-07 2.617127e-06 2.3644525e-06 -8.8112023e-07 2.5778825e-06 -2.3682207e-07 1.4047126e-07
-5.225598e-07 4.0632003e-06 -1.2425114e-08 -4.0622885e-07 2.7811689e-06 -4.978406e-07 1.2601446e-07 1.612581e-07
-5.1759287e-07 4.586148e-06 -2.7459967e-07 -8.704804e-09 2.9284524e-06 -7.2528593e-07 3.24521e-06 3.3648175e-06
4.369979e-06 1.9199437e-07 -9.485812e-08 3.629841e-06 1.7324509e-06 -7.4897787e-07 2.280696e-06 3.22118e-06
-6.356431e-07 -3.0003008e-07 4.5830307e-06 1.0432931e-06 -2.1846158e-06 -4.481833e-06 2.5667478e-06 -9.090987e-07
2.5475035e-06 -3.525189e-06 -2.2912225e-06 2.5677443e-07 4.301653e-06 -6.9429334e-06 1.2968915e-06 6.138251e-06
2.6854939e-06 3.1936216e-07 -4.8630177e-06 -5.302166e-07 -2.0318168e-08 1.8033381e-06 1.0998838e-06 -2.9841115e-06
1.9993546e-07 2.7039064e-06 -4.3155005e-06 -2.3432758e-06 -2.7045965e-06 1.3315773e-06 -5.2601507e-07 1.2405553e-06
2.822952e-06 -1.1579044e-07 -3.105937e-06 -3.0788283e-06 2.5534753e-06 -5.684226e-07 -2.3160533e-06 1.6924048e-07
1.0886529e-06 -4.8911797e-06 -1.5917433e-08 5.7470714e-07 -6.815445e-06 3.1269492e-06 3.487899e-07 -3.5866424e-07
9.28471e-06 -5.0103567e-06 4.0361624e-07 -8.123817e-07 -3.0349977e-07 1.9159804e-06 -2.3492664e-06 -1.2228713e-06
00000000: 7077 77b5 2f43 c434 05db bf34 932f 9435
00000010: 36bf d7b4 0610 9235 9449 0db6 08b6 8cb5
00000020: 7109 87b5 615f 33b5 b474 50b5 514a 2935
00000030: 13db 1f34 3431 95b5 6c12 39b5 da4d a733
00000040: 9661 26b5 0fbd ae33 6223 f835 c773 da34
00000050: 6f52 6c34 d6bc 45b4 4e20 3235 e127 54b5
00000060: 4636 13b5 2ca5 9735 6782 8fb5 919d bf33
00000070: 17ec 0eb5 f2a4 84b5 b2a9 2835 1d00 68b5
00000080: e389 3d35 7fdf f2b5 36ae 33b6 e680 2b30
00000090: 4229 4fb6 53c6 deb5 2577 4b35 bbe9 41b5
000000a0: b2e3 7735 2ce4 2335 c562 9db5 b9d2 18b5
000000b0: f8ec cab5 6152 72b5 4ed4 00b6 4888 6834
000000c0: e8a4 ad35 e6ae 4fb5 2eb0 8234 1574 7634
000000d0: 887f 46b4 8e17 c4b4 1a43 0635 7143 6d33
000000e0: 0aaa 08b6 7e2e ffb4 9c06 f532 d3e5 7332
000000f0: 4d68 fc35 c7af 03b5 8967 06b4 7ceb 31b5
00000100: a3ee 1435 db02 9034 5752 7234 ef71 1c36
00000110: 950e 36b5 bd76 60b5 da07 e6b4 3e64 d6b4
00000120: 2c48 aeb3 c151 d7b5 d313 aeb3 e0ac 2234
00000130: f8a4 8734 7229 0136 897f 73b4 edb3 c5b4
00000140: 245c 5335 a853 1634 7571 0236 5b9c 9a34
00000150: d2fb be35 18f8 b734 cd77 0a35 3d4d d935
00000160: 6af4 7935 590a 7ab5 d418 deb5 0785 04b5
00000170: f3de e935 71f9 b433 f131 1035 de71 b634
00000180: 75dc f8b4 ef6a 7935 406f a335 c2f5 8f35
00000190: c7d8 0135 abfc 7bb5 0f58 af35 b42e f6b5
000001a0: a700 dab5 1a93 7834 5dea 4335 6c36 9534
000001b0: 4261 2535 4480 fe34 1fff 6633 8075 c134
000001c0: 051a 0f35 5b31 3535 5732 3634 75a7 7a35
000001d0: ad0e 99b5 affc 4a35 19cc 4334 cf29 a534
000001e0: 9df1 4fb4 cbc7 3db5 b8cb 8a35 98ec ae35
000001f0: 54e5 8734 04fc 1bb5 c6a0 8435 d42d c734
00000200: 6ab1 9235 57a0 8b33 bebd 7634 9a91 70b4
00000210: 0e21 2ab4 6f84 6336 b857 9ab5 aea7 abb5
00000220: ec54 c434 bc20 6e36 c366 35b5 d029 56b5
00000230: ebf6 ea35 4d06 1636 f4c9 e9b5 c50e b933
00000240: c5f2 28b6 95c0 5836 645b c133 e86d 9633
00000250: e5f6 3836 e5ed 6e36 fff3 b7b4 f476 f8b5
00000260: 1d98 9db5 9d03 3936 d4f3 9436 2a93 0836
00000270: d7f5 6b35 ec4e 6eb5 0f75 ddb4 65c3 6534
00000280: 5968 4f36 7385 b7b5 c464 2836 0ec4 2f36
00000290: ddfd a936 52bc 2db4 e03e b533 c585 a2b5
000002a0: 6b0e 0fb4 8050 df33 e6a1 2f36 fcac 1e36
000002b0: 1f86 6cb5 afff 2c36 2849 7eb4 72d4 1634
000002c0: 0946 0cb5 a056 8836 3b76 55b2 ab17 dab4
000002d0: 1ea4 3a36 58a3 05b5 974e 0734 4a26 2d34
000002e0: b6f0 0ab5 b6e2 9936 b16c 93b4 228c 15b2
000002f0: 6e86 4436 45b1 42b5 49c8 5936 20cf 6136
00000300: d5a1 9236 0327 4e34 ceb4 cbb3 3298 7336
00000310: 8f86 e835 5e0d 49b5 0f0e 1936 732b 5836
00000320: 10a1 2ab5 d213 a1b4 efc7 9936 4707 8c35
00000330: 6a9b 12b6 a762 96b6 6440 2c36 c908 74b5
00000340: c7f5 2a36 4992 6cb6 e7c2 19b6 cfda 8934
00000350: eb56 9036 58f7 e8b6 da10 ae35 2df7 cd36
00000360: 6f38 3436 cd74 ab34 012d a3b6 3554 0eb5
00000370: 2088 aeb2 3a0a f235 b89f 9335 a542 48b6
00000380: d7ad 5634 c274 3536 decd 90b6 2c41 1db6
00000390: 9d80 35b6 a6b8 b235 7b33 0db5 2881 a635
000003a0: f271 3d36 78a8 f8b3 976f 50b6 de9d 4eb6
000003b0: 5f5c 2b36 b495 18b5 7e6d 1bb6 78b8 3534
000003c0: d41d 9235 ea1e a4b6 ceba 88b2 9345 1a35
000003d0: 3ab0 e4b6 94d8 5136 5241 bb34 708e c0b4
000003e0: 87c5 1b37 a31e a8b6 98b0 d834 7212 5ab5
000003f0: b1f0 a2b4 4b94 0036 17a8 1db6 8a21 a4b5

exp_avg_sq f4 [64, 64]
2.8412186e-10 4.6446215e-12 5.0818347e-12 1.7817241e-10 1.5638235e-10 1.190562e-10 1.4535963e-10 1.7612393e-10
3.2290767e-11 1.7513405e-10 1.4698832e-10 1.8812545e-11 1.5122244e-10 1.7803203e-10 1.562063e-10 4.0304492e-11
1.8473503e-10 1.2874096e-10 7.899877e-11 4.5606696e-12 1.417262e-10 1.7407341e-10 1.4535771e-10 1.6571185e-10
1.6980535e-10 1.5685947e-10 3.154009e-10 1.5413884e-10 2.041755e-10 1.47801e-10 1.7567111e-11 3.7241536e-11
1.8199398e-10 2.406796e-10 2.275464e-10 1.6118593e-10 3.5339517e-10 1.3498674e-10 2.5360722e-11 2.8317962e-10
2.8767203e-10 7.584182e-12 1.4686097e-10 2.194269e-10 2.009753e-10 1.0370861e-10 2.412227e-10 8.160023e-12
3.107205e-11 3.4543016e-10 3.642206e-12 1.6508168e-11 1.4378894e-10 1.3415818e-10 3.7956318e-12 7.699202e-12
3.3688408e-10 1.419371e-10 2.0923407e-11 3.2186642e-11 2.7232394e-10 1.4270561e-10 1.7758772e-10 1.5631824e-10
4.0209008e-10 7.0832064e-12 7.706768e-12 1.1043727e-10 1.4846394e-10 8.213531e-11 1.3290197e-10 2.0035511e-10
7.889989e-11 1.440566e-10 1.3637785e-10 2.1565515e-11 1.368199e-10 2.3247068e-10 1.0106585e-10 1.00616585e-10
1.2346049e-10 1.489883e-10 6.6288926e-11 6.9425325e-12 1.0067513e-10 2.2019486e-10 1.3392623e-10 1.0974871e-10
1.07911256e-10 1.11874426e-10 2.879018e-10 1.86441e-10 1.3664711e-10 1.3197377e-10 2.0911335e-11 9.096242e-11
1.3871537e-10 1.5357285e-10 3.2530967e-10 1.3282689e-10 3.1964928e-10 1.0285413e-10 2.8266363e-11 2.2459452e-10
2.911436e-10 1.0730177e-11 1.4242225e-10 3.1279726e-10 1.7846175e-10 1.4943914e-10 3.1918182e-10 1.1356575e-11
3.1524176e-11 3.3105407e-10 5.630367e-12 2.0155395e-11 1.7350779e-10 1.1089546e-10 6.011669e-12 1.0916193e-11
2.8948713e-10 1.2490835e-10 2.3857938e-11 3.3115795e-11 1.9792507e-10 1.0910177e-10 1.2581997e-10 1.6358974e-10
1.5692482e-10 5.4806447e-13 7.87775e-13 1.5085186e-10 1.2566982e-10 1.2245668e-10 1.2337928e-10 1.2730415e-10
2.4875163e-12 2.1122241e-10 1.2423489e-10 3.2566907e-12 1.7602593e-10 1.7150543e-10 1.4290753e-10 2.4816048e-12
1.6145363e-10 1.330138e-10 3.4908795e-12 5.216237e-13 1.6672572e-10 1.6668349e-10 1.2344417e-10 1.4397113e-10
1.3062702e-10 1.9202841e-10 3.496336e-10 1.5540028e-10 2.2696452e-10 1.2417835e-10 2.742643e-12 2.1428532e-12
2.1232026e-10 1.9028991e-10 1.8509982e-10 1.8926401e-10 3.7131756e-10 1.1771821e-10 2.6523423e-12 2.1675234e-10
2.1606344e-10 1.1048728e-12 1.6502225e-10 1.8782877e-10 1.691779e-10 9.223659e-11 1.4477843e-10 1.130189e-12
2.9823405e-12 3.569694e-10 3.8523343e-13 2.9592925e-12 1.4938205e-10 1.1818374e-10 4.590065e-13 1.0225696e-12
2.5893754e-10 1.6937556e-10 2.9062456e-12 2.8816997e-12 2.3667263e-10 1.2605209e-10 2.0249712e-10 1.6802734e-10
1.3212298e-09 9.65662e-12 1.0781903e-11 5.2270305e-10 6.8610695e-10 3.639487e-10 6.486228e-10 8.364028e-10
1.260255e-10 7.380591e-10 6.6157657e-10 2.6642662e-11 6.797722e-10 8.457748e-10 5.241051e-10 1.5557323e-10
6.4658295e-10 6.229335e-10 4.024504e-11 9.296629e-12 4.4036313e-10 8.3752866e-10 6.3402567e-10 6.3527833e-10
4.3655735e-10 5.9479593e-10 1.4008565e-09 7.211009e-10 7.0959033e-10 6.266659e-10 2.513379e-11 1.4409522e-10
7.0592504e-10 3.4125153e-10 1.097572e-09 6.890431e-10 1.547958e-09 5.3435756e-10 2.8885257e-11 1.1777685e-09
1.3539613e-09 1.4238577e-11 6.6420497e-10 1.0580745e-09 8.7278407e-10 5.21452e-10 1.1318475e-09 1.4687251e-11
3.1477855e-11 1.515864e-09 7.580946e-12 2.49161e-11 7.03311e-10 5.5294735e-10 8.319139e-12 1.3964158e-11
1.4391561e-09 6.344983e-10 2.7241796e-11 3.221302e-11 3.2113517e-10 5.727581e-10 6.9191547e-10 7.2078016e-10
00000000: 9932 9c2f 086b a32c 19cd b22c 13e7 432f
00000010: b8f1 2b2f 57e7 022f 19d3 1f2f 7ba6 412f
00000020: 2c04 0e2e da8f 402f 899d 212f 167a a52d
00000030: 5545 262f 90bf 432f 2ac0 2b2f d342 312e
00000040: 4a1e 4b2f 5c8d 0d2f 5bb8 ad2e dc76 a02c
00000050: 61d4 1b2f 4f65 3f2f 8fd2 1f2f bd33 362f
00000060: f5b3 3a2f 0478 2c2f bb64 ad2f 3a7a 292f
00000070: 4b7e 602f 4882 222f 9e85 9a2d 3eca 232e
00000080: c01a 482f a450 842f 9e30 7a2f ce39 312f
00000090: f347 c22f 646b 142f 4513 df2d fdad 9b2f
000000a0: 3d26 9e2f 1f6c 052d b079 212f 2e43 712f
000000b0: 85f9 5c2f c20e e42e 149d 842f 7a8d 0f2d
000000c0: 05a8 082e f9e6 bd2f 1326 802c 1735 912d
000000d0: fd18 1e2f 2c82 132f 038c 852c 2072 072d
000000e0: 3834 b92f be0f 1c2f 530b b82d f08e 0d2e
000000f0: 30b6 952f 0fe8 1c2f 8042 432f acdf 2b2f
00000100: 260d dd2f da37 f92c 3394 072d a8da f22e
00000110: e23c 232f 129e b42e 9420 122f f34a 5c2f
00000120: b080 ad2e 5464 1e2f f4f2 152f 39b1 bd2d
00000130: 616f 162f ae9a 7f2f 043f de2e 1a42 dd2e
00000140: 0abf 072f 7ad0 232f 59c5 912e c644 f42c
00000150: 0f63 dd2e 581b 722f e240 132f 0857 f12e
00000160: a34c ed2e b403 f62e 9446 9e2f 7afe 4c2f
00000170: be3e 162f 501b 112f 24f0 b72d 4a07 c82e
00000180: e884 182f eada 282f 44d7 b22f 720b 122f
00000190: a3ba af2f ba2d e22e 31a2 f82d bdf1 762f
000001a0: d20e a02f 6cc4 3c2d 4d98 1c2f 4df6 ab2f
000001b0: 8438 442f 614f 242f d978 af2f 78c9 472d
000001c0: 11a5 0a2e b8ff b52f d619 c62c ea49 b12d
000001d0: 1ac6 3e2f 98dc f32e 4d84 d32c 2a0a 402d
000001e0: b125 9f2f 9356 092f 4ddb d12d 12a5 112e
000001f0: f49e 592f d6ea ef2e 2c57 0a2f 6bde 332f
00000200: 698a 2c2f 3544 1a2b 2cbd 5d2b 06dd 252f
00000210: e92c 0a2f 7ea4 062f 2ea8 072f eff8 0b2f
00000220: 1c0b 2f2c d33d 682f 0399 082f 532b 652c
00000230: e58a 412f 7d92 3c2f e520 1d2f 9ea0 2e2c
00000240: 2885 312f 0e40 122f 18a6 752c f3d2 122b
00000250: 1e51 372f 3b45 372f 72ba 072f 454c 1e2f
00000260: 3da0 0f2f 3123 532f 8e36 c02f 4add 2a2f
00000270: d58c 792f 1989 082f 10ff 402c 36ca 162c
00000280: d772 692f d939 512f f884 4b2f 1519 502f
00000290: 4d22 cc2f bb6e 012f 5aa4 3a2c 5c52 6e2f
000002a0: 7490 6d2f 3d7f 9b2b a271 352f 1985 4e2f
000002b0: 5803 3a2f 96d4 ca2e 812f 1f2f 5a0f 9f2b
000002c0: 12dd 512c fa3e c42f fddd d82a e03d 502c
000002d0: 4f3f 242f c4f1 012f e732 012b f4e9 8f2b
000002e0: 385a 8e2f fb3a 3a2f 4482 4c2c 16c8 4a2c
000002f0: b61c 822f 8298 0a2f dfa5 5e2f 7ebf 382f
00000300: a496 b530 8de1 292d 60ad 3d2d f5ad 0f30
00000310: 7c98 3c30 3a15 c82f c64a 3230 9de8 6530
00000320: 0691 0a2f 4be0 4a30 50da 3530 f159 ea2d
00000330: b7da 3a30 1c7c 6830 9e10 1030 f90d 2b2f
00000340: 3bbb 3130 0c3b 2b30 e3ff 302e 4b8c 232d
00000350: 9a17 f22f d737 6630 9747 2e30 bd9f 2e30
00000360: fcff ef2f 0b7f 2330 4288 c030 f736 4630
00000370: fb0c 4330 b141 2c30 4314 dd2d 336f 1e2f
00000380: 0f0b 4230 e29a bb2f 62d9 9630 1967 3d30
00000390: eebf d430 12e2 1230 d113 fe2d 0cdf a130
000003a0: 4716 ba30 da7c 7a2d 4593 3630 b06b 9130
000003b0: b8e8 6f30 ec55 0f30 588f 9b30 c030 812d
000003c0: ea70 0a2e b956 d030 8c5d 052d 122a db2d
000003d0: 1d53 4130 36fe 1730 125a 122d faa8 752d
000003e0: cecb c530 d968 2e30 129f ef2d a3ac 0d2e
000003f0: c28b b02f 4570 1d30 3931 3e30 6520 4630
