ex/PINN/solution/model_data/pinne_burgers_prova.pth (torch, 209282 bytes, 18 tensors)

network.fc0.weight f4 [64, 2]
0.41278952 0.8168751 0.39555418 -0.22121666 0.2815049 -1.8752736 0.3753019 -1.0635253
0.40935522 1.0183438 -1.5994864 -0.12649469 0.27561456 1.227287 0.24566478 0.0069459057
0.15277286 -1.3989236 0.14665715 -1.8160973 -1.1914126 -0.093866654 0.31027326 1.4786125
0.30490515 -0.8159754 0.2319594 1.2699308 0.22140433 -1.5977795 0.32633233 1.4703051
0.35722554 1.2440969 0.32288015 1.1950662 0.17848423 -1.7626134 0.4267191 1.1358453
0.095909975 -1.9130521 0.24048555 -1.238728 0.24325816 1.3584334 0.29078475 1.4466511
0.23445204 1.4304354 0.37852803 0.09103383 0.26237988 1.4142239 0.54037917 -1.7976419
0.32776293 -1.5802202 0.33966178 -0.036081664 0.2169469 -1.729469 0.28597018 -1.3046045
0.16817573 1.3003504 0.16762835 1.260866 -1.4655162 -0.044141907 0.34540573 -0.9925818
0.31180575 -0.029065728 0.13920183 -1.4585446 0.30012247 -1.742256 0.18246837 -0.9341203
0.19776945 -1.537384 0.117539294 1.7259215 0.18890552 -1.4055271 0.3382142 0.85923874
0.23728205 -1.5553569 0.37939203 0.09544472 0.24934682 -1.8512347 0.24861172 1.4104235
0.3122738 0.93854946 0.38421023 1.2767578 0.23678446 1.1268502 0.20262331 -0.8574108
0.3224342 1.0439818 0.38269013 0.11044651 0.35545015 1.3169014 0.27728805 -1.2409614
0.20181532 1.4426128 0.31569737 -1.3565065 0.12299391 1.5022129 0.42302978 -0.3241649
0.1838152 -1.4672627 0.25003192 -1.8033761 0.35221863 0.92653084 -0.27500308 -0.0144126965
00000000: 2659 d33e ba1e 513f 1486 ca3e 9f86 62be
00000010: 6921 903e f708 f0bf 9227 c03e 9921 88bf
00000020: 0297 d13e 1759 823f f8bb ccbf d387 01be
00000030: 5a1d 8d3e be17 9d3f 8c8f 7b3e 7b9a e33b
00000040: 7d70 1c3e ee0f b3bf 4b2d 163e e075 e8bf
00000050: 3580 98bf 293d c0bd 23dc 9e3e 2d43 bd3f
00000060: 871c 9c3e c4e3 50bf c486 6d3e 188d a23f
00000070: d1b7 623e 0a84 ccbf 0815 a73e f532 bc3f
00000080: 44e6 b63e 913e 9f3f 8c50 a53e eef7 983f
00000090: 92c4 363e 519d e1bf ed7a da3e 6163 913f
000000a0: 736c c43d e4de f4bf d841 763e a48e 9ebf
000000b0: ab18 793e 25e1 ad3f bde1 943e dd2b b93f
000000c0: 3214 703e 8218 b73f 6dce c13e f26f ba3d
000000d0: a856 863e 4a05 b53f 4a56 0a3f 2119 e6bf
000000e0: 8bd0 a73e a844 cabf 26e8 ad3e 5eca 13bd
000000f0: 5427 5e3e 3d5f ddbf af6a 923e 48fd a6bf
00000100: 4236 2c3e e271 a63f c4a6 2b3e 0f64 a13f
00000110: 0996 bbbf 25ce 34bd 05d9 b03e d719 7ebf
00000120: 01a5 9f3e 401b eebc ed8a 0e3e 97b1 babf
00000130: a7a9 993e 3f02 dfbf fdd8 3a3e 8222 6fbf
00000140: 1384 4a3e 00c9 c4bf 71b8 f03d ffea dc3f
00000150: 7370 413e 50e8 b3bf 692a ad3e 12f7 5b3f
00000160: 11fa 723e ef15 c7bf ac3f c23e 8578 c33d
00000170: c654 7f3e 42f5 ecbf 1294 7e3e c288 b43f
00000180: 5ae2 9f3e c744 703f 34b7 c43e cd6c a33f
00000190: a077 723e a13c 903f 7c7c 4f3e 467f 5bbf
000001a0: 1816 a53e 32a1 853f f6ef c33e c831 e23d
000001b0: 90fd b53e 3a90 a83f b3f8 8d3e d3d7 9ebf
000001c0: ada8 4e3e 89a7 b83f 16a3 a13e 01a2 adbf
000001d0: 3be4 fb3d 8348 c03f 5c97 d83e f1f8 a5be
000001e0: 0d3a 3c3e 44cf bbbf 2f04 803e 07d5 e6bf
000001f0: 0056 b43e 2031 6d3f 34cd 8cbe 3b23 6cbc

network.fc1.weight f4 [64, 64]
-0.04541672 -0.136529 -0.04763444 -0.03521368 -0.07538218 -0.056657158 0.032435026 0.048120327
-0.04960152 0.014898391 -0.06124983 0.17804916 -0.041941825 0.09401122 -0.07504323 0.5012085
0.1483097 0.08180434 -0.017306533 0.030142138 0.035205074 -0.12843052 -0.005801681 0.15310985
0.12978745 0.032683454 0.033202894 -0.07409582 -0.023000745 -0.0022085106 -0.07278797 -0.11190483
0.5297595 0.28675625 0.105617076 -0.055530023 -0.03995294 -0.016331436 -0.1088221 -0.11284198
-0.07399105 0.51476115 -0.07913149 0.0840576 -0.06683726 -0.031294294 -0.04172764 0.3126885
-0.09082273 0.062581025 0.076334395 -0.12886202 0.0659941 -0.045557648 0.13285962 0.03849936
0.08029961 -0.088757485 0.2570775 -0.12253389 -0.059926383 -0.04607257 -0.009047392 -0.032454416
-0.17827728 0.3032653 0.49545294 0.13041104 -0.3176908 -0.1452433 -0.44196367 0.12304235
0.5479656 0.60469234 -0.12047572 -0.4549923 0.52796185 -0.4385815 0.45864463 -0.66685116
-0.38082835 -0.55212283 0.42401615 -0.19954044 0.6158637 0.4177874 -0.45089176 -0.38571835
-0.5456245 -0.0036065574 -0.39582464 0.22419167 0.31147566 0.19423558 0.25730336 0.57478833
-0.7929724 -0.7951575 -0.10390907 0.26718083 0.16385423 0.8904529 0.5841954 0.4098555
0.6323528 -1.0432974 0.57208496 -0.31348753 0.4844678 0.068822965 0.20191231 -0.47473073
-0.3247163 -0.25213745 -0.37990722 0.42202133 -0.37420598 -0.08348401 -0.29177332 0.3941037
-0.6079092 0.39195958 -0.8921028 0.35376748 0.5707746 0.39323395 -0.3030465 0.033947855
0.041205432 0.2695198 -0.0035719103 0.130275 0.043173067 -0.062066827 0.017568128 0.37622377
-0.024905305 -0.031330407 0.01920348 0.057329148 0.26706097 0.03450919 0.017413175 0.08182966
0.029169159 0.041313242 -0.019258015 0.063780464 -0.012083405 0.08371666 0.016171118 0.044578053
0.022576435 -0.0060050855 0.018470434 -0.018297605 -0.0061794696 0.20012036 0.02737206 0.038363624
0.019660514 0.050479446 0.010215053 0.23531291 0.21429974 -0.014669228 -0.030746585 0.03754417
-0.00059235655 0.023078341 0.03944911 0.02409538 0.036490433 -0.03224602 -0.01707227 0.021945449
-0.0181919 0.01667623 0.024899151 0.08479184 0.0059628724 -0.0056497245 0.05870484 0.15681745
0.022917008 0.05806971 -0.007974206 0.27355886 -0.0039036765 -0.0022383484 0.04295914 -0.04507532
0.040296186 0.12143244 -0.07106551 -0.093683586 0.022160953 -0.097391464 -0.008842983 0.60524297
-0.07815633 -0.06618836 -0.12433539 -0.01200681 -0.093030095 -0.02975766 -0.081966795 0.005314842
-0.006970206 0.014068002 -0.06164065 0.016995614 1.2204484 -0.10302949 -0.021097323 -0.013738718
-0.022041513 0.07990243 -0.011961031 -1.0798118 -0.089461125 0.1819398 -0.0707008 -0.10362014
-0.036246233 -0.031253114 -0.21748722 -0.08351323 0.23773111 -0.06732998 -0.08620847 -0.10778303
-0.08564894 -0.05414179 -0.08504178 0.029061323 -0.08676602 0.09290636 -0.06550099 -0.023988986
0.006378961 -0.0067739054 -0.0206218 -0.099976934 0.002836466 0.12660593 -0.018310899 -0.10483859
-0.031970344 -0.10683406 -0.04321006 0.06623844 -0.10254295 -0.12276456 0.01804296 -0.38604993
00000000: e206 3abd 42ce 0bbe 551c 43bd 383c 10bd
00000010: f961 9abd 5611 68bd 97da 043d d219 453d
00000020: f72a 4bbd 6218 743c 1ae1 7abd 8552 363e
00000030: 31cb 2bbd f488 c03d 44b0 99bd 334f 003f
00000040: 7fde 173e 0989 a73d 6ec6 8dbc a5ec f63c
00000050: 3233 103d 4a83 03be 071c bebb d4c8 1c3e
00000060: 00e7 043e 16df 053d c2ff 073d 8dbf 97bd
00000070: 0f6c bcbc a9bc 10bb dc11 95bd 5c2e e5bd
00000080: 529e 073f b7d1 923e c44d d83d 7373 63bd
00000090: b2a5 23bd 81c9 85bc 1fde debd b219 e7bd
000000a0: 9f88 97bd 63c7 033f b10f a2bd 6426 ac3d
000000b0: f9e1 88bd 722e 00bd 9aea 2abd b518 a03e
000000c0: 4401 babd 7b2a 803d 3555 9c3d 68f4 03be
000000d0: ea27 873d a89a 3abd 5a0c 083e 81b1 1d3d
000000e0: 1f74 a43d 7cc6 b5bd a99f 833e 0cf3 fabd
000000f0: 5e75 75bd 97b6 3cbd 833b 14bc ecee 04bd
00000100: 528e 36be 9745 9b3e 02ac fd3e 798a 053e
00000110: 5ea8 a2be a9ba 14be 1049 e2be a1fd fb3d
00000120: 7947 0c3f 1ecd 1a3f f9bb f6bd c0f4 e8be
00000130: 8228 073f c18d e0be 78d3 ea3e c2b6 2abf
00000140: effb c2be ec57 0dbf a518 d93e 5454 4cbe
00000150: 3ea9 1d3f 3be8 d53e 49db e6be e07c c5be
00000160: 0cae 0bbf fe5b 6cbb 87a9 cabe 8092 653e
00000170: bd79 9f3e b1e5 463e 44bd 833e 5425 133f
00000180: 3d00 4bbf 718f 4bbf 47ce d4bd edcb 883e
00000190: 67c9 273e b9f4 633f d48d 153f 95d8 d13e
000001a0: e0e1 213f c58a 85bf 2974 123f 7081 a0be
000001b0: 2a0c f83e 0ef3 8c3d 1ac2 4e3e e80f f3be
000001c0: 3741 a6be 2918 81be 3383 c2be 2e13 d83e
000001d0: ed97 bfbe aaf9 aabd 5063 95be f6c7 c93e
000001e0: f09f 1bbf edae c83e d960 64bf 0321 b53e
000001f0: 491e 123f f655 c93e e928 9bbe e80c 0b3d
00000200: 07c7 283d 80fe 893e b616 6abb cf66 053e
00000210: 3ed6 303d c939 7ebd 09eb 8f3c 67a0 c03e
00000220: 3606 ccbc 5054 00bd 9e50 9d3c f8d1 6a3d
00000230: 37bc 883e 8259 0d3d 13a6 8e3c 4f96 a73d
00000240: 29f4 ee3c 1338 293d fcc2 9dbc 559f 823d
00000250: 79f9 45bc a473 ab3d 4b79 843c 7a97 363d
00000260: 37f2 b83c 4fc6 c4bb 4f4f 973c dce4 95bc
00000270: 267d cabb 5aec 4c3e 5f3b e03c 2d23 1d3d
00000280: 160f a13c 89c3 4e3d 0a5d 273c def5 703e
00000290: 6471 5b3e 3457 70bc 43e0 fbbc eac7 193d
000002a0: 6048 1bba ca0e bd3c 6495 213d ad63 c53c
000002b0: fe76 153d 6714 04bd 25db 8bbc f1c6 b33c
000002c0: 2e07 95bc 979c 883c 4ef9 cb3c 58a7 ad3d
000002d0: 3364 c33b 5321 b9bb 7c74 703d c194 203e
000002e0: 73bc bb3c 81da 6d3d 3ea6 02bc e80f 8c3e
000002f0: d3d4 7fbb 41b1 12bb ecf5 2f3d e6a0 38bd
00000300: 9d0d 253d 92b1 f83d cb8a 91bd 2edd bfbd
00000310: e38a b53c 2d75 c7bd 29e2 10bc 34f1 1a3f
00000320: 6d10 a0bd c38d 87bd 8ea3 febd 36b8 44bc
00000330: 9086 bebd 56c6 f3bc 35de a7bd 2028 ae3b
00000340: 5366 e4bb 7a7d 663c e87a 7cbd 633a 8b3c
00000350: a737 9c3f 2001 d3bd 4bd4 acbc 5c18 61bc
00000360: 6790 b4bc e3a3 a33d 33f8 43bc 4637 8abf
00000370: 6537 b7bd 6d4e 3a3e 95cb 90bd cc36 d4bd
00000380: ee76 14bd 4403 00bd f8b4 5ebe fc08 abbd
00000390: c96f 733e 4de4 89bd 118e b0bd 59bd dcbd
000003a0: b668 afbd c8c3 5dbd 622a aebd 0312 ee3c
000003b0: 62b2 b1bd b145 be3d 6225 86bd 8d84 c4bc
000003c0: 9a06 d13b a3f7 ddbb 0def a8bc b5c0 ccbd
000003d0: 01e4 393b fca4 013e bd00 96bc 9db5 d6bd
000003e0: 56f3 02bd d1cb dabd 08fd 30bd 05a8 873d
000003f0: 0a02 d2bd fc6b fbbd d4ce 933c 56a8 c5be

network.fc2.weight f4 [64, 64]
-0.03352117 0.0017103056 0.032306597 0.043468956 0.06378039 0.92325306 0.1580229 -0.014911354
-0.00570217 -0.0033622512 -0.052468065 0.0032680344 0.0017106617 0.021491062 0.13898207 0.009286438
-0.11580473 -0.25595775 -0.045138396 -0.007924903 0.052261975 -0.2525766 0.18756407 0.14375316
-0.21353863 0.21793838 0.212799 0.16154069 0.04945067 -0.1510836 -0.009596507 -0.008646597
0.00040271218 -0.10165937 -0.0043678004 -0.05343244 0.0026736972 0.0011157785 0.032330915 0.047334027
-0.16532594 -0.016293064 0.17130314 0.30852097 0.009644008 -0.00071801816 0.20220298 -0.039431006
-0.08403705 0.0021182839 -0.1090024 0.08704493 -0.065501176 0.009120576 -0.12287729 -0.00017428747
-0.16514808 0.0148052545 0.056736905 0.16570824 0.034019504 0.43153664 -0.08447889 -0.032604996
-0.0019358181 -0.27334732 0.047583815 0.022430072 -0.012566184 -0.19076963 0.10146629 -0.006663479
-0.5559231 -0.54053104 -0.65720594 -0.5653022 -0.36131638 -0.4984053 0.07590196 -0.19305056
-0.0030233974 -0.13394745 0.13351539 -0.0013051302 -0.4785437 -0.07897839 0.007814117 -0.32026657
-0.008359704 -0.009880469 0.17026168 -0.005131593 0.09868685 0.21056038 -0.59697926 -1.4967511
-0.24957557 -0.35048547 -0.51255876 -0.003082883 -0.7879054 -0.98742044 0.0124157285 -0.66123945
-0.0022483203 -0.00022582847 -0.47153813 -0.0057019056 -0.9102822 -0.20129068 -0.52839464 -0.0013836407
-0.20609549 -0.42928165 0.021842174 -1.0661638 -0.7351505 -0.32922 -0.008828854 -1.3100379
-0.121513456 -0.061559673 -0.83932215 -0.3150717 0.017090967 0.1447144 -0.004192088 -0.0034499448
-0.0025979339 -0.062358502 0.046182666 -0.060972277 0.023973415 0.5828156 -0.008285509 -0.003103158
0.004856232 0.16400194 0.095975086 -0.03706 -0.13013932 0.06667644 0.010339983 -0.017096944
-0.103107095 -0.10193602 0.088928245 -0.0021603971 -0.024054803 -0.132349 -0.0035794117 -0.05578811
-0.013236251 0.018302776 -0.03748843 -0.0019031554 0.04580929 -0.011102674 0.050035764 0.1926715
-0.062587224 -0.13775572 -0.25308537 0.00047996553 -0.076008 0.020831794 0.040205754 0.09116213
0.00060190796 -0.002684637 -0.109204896 -0.005708945 -0.063879065 -0.101371855 -0.02679378 -0.0015733696
-0.022342617 -0.24673739 -0.007487901 -0.045572467 0.0866575 0.05405856 -0.004822455 0.11584374
0.01618732 -0.053728204 0.004130741 0.005725972 0.032332793 0.15401621 -0.0022445556 -0.003128961
-0.14774387 -0.011686958 -0.11980004 -0.16002025 -0.19803043 -0.015700297 -0.37440756 -0.10264712
0.1668453 -0.008877671 0.12681518 -0.013451786 -0.009268279 0.21283785 -0.36179146 -0.3873606
-0.18011142 0.11263181 -0.47604638 -0.14698935 0.009318394 0.124685265 -0.44535634 -0.19271801
0.2754367 -1.2215196 -0.24005714 -0.07929963 -0.16475941 0.08611978 0.2405115 -0.06222442
-0.010634923 0.1634628 -0.02030773 -0.1493334 -0.011809586 -0.01174729 -0.18398546 0.103856735
0.17664698 -0.09447333 0.004851185 0.22603239 0.05125 -0.012233304 -0.1904396 -0.55194014
0.13983639 -0.014341491 0.05232739 -0.17392986 -0.1693568 0.15620819 0.08004069 -0.03139883
0.1342862 0.433525 0.00719239 0.20651276 -0.15468095 -0.016737225 0.03905673 -0.10512807
00000000: 7f4d 09bd 552c e03a ec53 043d 810c 323d
00000010: 4b9f 823d 505a 6c3f c1d0 213e c04e 74bc
00000020: 45d9 babb 3759 5cbb c1e8 56bd 852c 563b
00000030: 4838 e03a 060e b03c 5151 0e3e 2526 183c
00000040: 082b edbd e50c 83be 0ae3 38bd 74d7 01bc
00000050: a710 563d b851 81be cc10 403e 0734 133e
00000060: dfa9 5abe 3d2b 5f3e fbe7 593e ec6a 253e
00000070: c98c 4a3d a9b5 1abe ab3a 1dbc 75aa 0dbc
00000080: 1d23 d339 ca32 d0bd c41f 8fbb f9db 5abd
00000090: 3239 2f3b 503f 923a 6c6d 043d 53e1 413d
000000a0: 344b 29be 0879 85bc 176a 2f3e 76f6 9d3e
000000b0: e701 1e3c 6239 3cba 4c0e 4f3e 6882 21bd
000000c0: 9e1b acbd e8d2 0a3b a63c dfbd 9d44 b23d
000000d0: 7b25 86bd 786e 153c 17a7 fbbd f0c0 36b9
000000e0: 941c 29be bd91 723c f564 683d 6caf 293e
000000f0: 0958 0b3d 5ff2 dc3e 4503 adbd d18c 05bd
00000100: 47bb fdba 2ef4 8bbe 3fe7 423d 45bf b73c
00000110: 65e2 4dbc 1d59 43be 8fcd cf3d 5059 dabb
00000120: fa50 0ebf 3e60 0abf a63e 28bf a5b7 10bf
00000130: 76fe b8be fb2e ffbe 7d72 9b3d 0caf 45be
00000140: 3124 46bb 8529 09be 42b8 083e e710 abba
00000150: ae03 f5be 6cbf a1bd c806 003c fbf9 a3be
00000160: 24f7 08bc b1e1 21bc 1459 2e3e ec26 a8bb
00000170: 551c ca3d 249d 573e a2d3 18bf 8a95 bfbf
00000180: bd90 7fbe d572 b3be 0d37 03bf 320a 4abb
00000190: 2bb4 49bf 96c7 7cbf 576b 4b3c fd46 29bf
000001a0: 8e58 13bb 5ecc 6cb9 726d f1be 0dd7 babb
000001b0: 4108 69bf 251f 4ebe df44 07bf 475b b5ba
000001c0: b20a 53be ceca dbbe 5cee b23c 0e78 88bf
000001d0: d332 3cbf 868f a8be e6a6 10bc 52af a7bf
000001e0: 0cdc f8bd ff25 7cbd d1dd 56bf 1451 a1be
000001f0: 5b02 8c3c 0330 143e c85d 89bb 7818 62bb
00000200: 1942 2abb a16b 7fbd 092a 3d3d 11be 79bd
00000210: e563 c43c 6733 153f f2bf 07bc 5a5e 4bbb
00000220: 0721 9f3b 20f0 273e 968e c43d 3acc 17bd
00000230: 3e43 05be a88d 883d 0869 293c e40e 8cbc
00000240: d029 d3bd d5c3 d0bd 0320 b63d 7395 0dbb
00000250: 940e c5bc 7f86 07be 9094 6abb 1382 64bd
00000260: dcdc 58bc b4ef 953c 788d 19bd 4c73 f9ba
00000270: 86a2 3b3d fde7 35bc 4df2 4c3d ad4b 453e
00000280: bb2d 80bd d60f 0dbe 6894 81be e2a3 fb39
00000290: 15aa 9bbd 70a7 aa3c caae 243d 36b3 ba3d
000002a0: 5cc9 1d3a bcf0 2fbb d1a6 dfbd 1a12 bbbb
000002b0: 07d3 82bd 0c9c cfbd a17e dbbc 8639 ceba
000002c0: dd07 b7bc baa8 7cbe 115d f5bb 32aa 3abd
000002d0: 7d79 b13d 826c 5d3d af05 9ebb 7c3f ed3d
000002e0: 459b 843c 1b12 5cbd 2b5b 873b efa0 bb3b
000002f0: 646f 043d 6db6 1d3e 6519 13bb 410f 4dbb
00000300: 2b4a 17be a87a 3fbc b959 f5bd 59dc 23be
00000310: 7dc8 4abe e99d 80bc 59b2 bfbe a738 d2bd
00000320: 7fd9 2a3e a773 11bc d7db 013e e164 5cbc
00000330: fbd9 17bc 2af2 593e bb3c b9be 2154 c6be
00000340: 216f 38be 82ab e63d 5abc f3be 6084 16be
00000350: 2dac 183c fd5a ff3d bf05 e4be df57 45be
00000360: 0a06 8d3e c15a 9cbf 8ad1 75be d867 a2bd
00000370: b1b6 28be 915f b03d a648 763e 09df 7ebd
00000380: 1a3e 2ebc cb62 273e 665c a6bc dbea 18be
00000390: fe7c 41bc b577 40bc af66 3cbe d7b2 d43d
000003a0: f2e2 343e 3c7b c1bd b0f6 9e3b 0975 673e
000003b0: 85eb 513d 326e 48bc 9902 43be f34b 0dbf
000003c0: 4531 0f3e 93f8 6abc 3f55 563d ab1a 32be
000003d0: de6b 2dbe 0af5 1f3e 60ec a33d 0f9c 00bd
000003e0: 5282 093e fdf6 dd3e 24ae eb3b 1578 533e
000003f0: af64 1ebe 811c 89bc f3f9 1f3d 634d d7bd

network.fc3.weight f4 [64, 64]
0.13100274 -0.27241835 -0.22464326 -0.61015135 0.029627455 -0.26642588 -0.07488762 -0.47995916
-0.46928477 -0.20570984 -0.38853094 0.12411114 0.04612003 0.39139876 -0.7202274 -0.56426287
1.2854742 0.049379144 0.44949496 -0.24164562 -0.07247765 -0.43599495 -0.50102246 0.009371081
-0.38276297 -0.47302207 -0.4354013 -0.37775198 0.23888852 -0.030084167 0.098975964 -0.31067273
0.07811371 -0.52446306 0.48435047 -0.41601765 0.02266824 0.2908598 -0.18523191 -0.3929631
-0.41046184 0.02052232 0.049743935 0.1116815 0.41439846 -0.018796498 -0.3099505 0.005121919
-0.013311916 -0.2935757 -0.4499504 -0.33967978 -0.20683156 0.39085382 -0.41360703 0.014006238
-0.43405595 -0.3886362 0.14514549 0.58623165 0.043892976 -0.28940493 0.2828768 0.31342888
-0.13737462 -0.008516131 0.15190415 0.1276519 0.024059583 -0.18459733 0.038947217 0.050357603
-0.07841234 0.04490577 0.14998235 0.06536353 -0.1027176 0.022020606 0.051202334 0.59218496
-0.09667185 0.06015306 0.025419408 0.30046546 0.46472034 0.013023295 0.4219837 0.085747436
0.27765474 0.062076993 -0.10089038 0.058001433 -0.055013683 -0.25426736 -0.19311741 -0.1473814
0.18969962 -0.18262097 0.008722554 -0.1697631 0.07129768 0.056467157 0.16354583 0.61154455
0.13258815 0.20219742 0.17473923 -0.13124707 0.01617683 0.009622868 0.08247747 0.012865102
0.011437068 0.18713611 0.076504745 0.55523235 -0.23622976 0.08269013 0.38401225 0.23389935
0.35926777 -0.21588172 -0.1682083 0.109108634 -0.15564325 -0.059260216 0.0068836957 -0.006547452
-0.095852815 -0.040817752 -0.01775524 0.114295445 -0.022388985 0.038742978 -0.08981496 -0.045983817
0.08358621 -0.020840975 0.09150754 -0.20305203 0.123338215 -0.11069332 0.22561388 -0.10329455
-0.10996729 0.22458671 -0.13271135 0.055851292 -0.22065733 0.009106339 -0.20553513 -0.054571718
-0.17780206 -0.03823909 -0.021436838 -0.15715584 -0.020505529 0.021705396 0.13002104 -0.13502456
0.058785256 0.018113561 -0.08680469 0.13519636 0.03434732 -0.20371838 -0.0028728023 -0.24580397
-0.01522503 -0.2657401 -0.18591094 0.00040110582 0.0028885521 0.026275575 0.5484492 0.024618533
0.012199326 -0.10800608 0.39978603 -0.20041543 0.08802746 -0.28538093 0.01462996 -0.010273182
0.27871037 0.067946464 -0.026238477 -0.22270921 -0.050640974 -0.06307813 -0.1675469 -0.12321575
0.05865577 -0.041845452 -1.1602486 -0.31553546 0.033260897 -1.0437703 0.25229192 -0.10689201
-0.414811 -0.044028606 -0.70512086 0.10015077 -0.16376932 0.24332047 -0.86565685 -0.2468461
0.45674863 -1.2267772 0.35301417 -0.5769241 0.11056038 -0.2030174 0.032809235 0.031317376
0.061466504 -0.19875358 -0.110769585 -0.015144877 0.19305928 -0.03170951 -0.0464066 0.021723475
-0.019846987 -0.2296528 0.31779823 -0.62787014 0.013905345 0.3541364 0.14037545 0.054141395
0.057367027 0.058787506 0.08923542 0.059775587 0.27696812 -0.007075943 -0.93225557 -0.017862398
0.0013199504 -0.12929927 -0.77363974 -0.60665417 -0.89867127 0.5348262 -0.6072781 0.20557229
-0.9597375 -0.14975916 -0.015527983 0.53896976 0.073515736 -0.09809217 0.48078555 0.36266914
00000000: 9525 063e 6b7a 8bbe e208 66be e132 1cbf
00000010: 47b5 f23c f968 88be ae5e 99bd 35bd f5be
00000020: 1846 f0be 9aa5 52be 87ed c6be fb2d fe3d
00000030: 5be8 3c3d 6b65 c83e d360 38bf 8873 10bf
00000040: 6b8a a43f c941 4a3d 3424 e63e f371 77be
00000050: 2a6f 94bd bb3a dfbe 0243 00bf 2a89 193c
00000060: 82f9 c3be f32f f2be ebec debe b568 c1be
00000070: 319f 743e 1273 f6bc e9b3 ca3d 7f10 9fbe
00000080: 15fa 9f3d 3643 06bf c9fc f73e 4400 d5be
00000090: bfb2 b93c 93eb 943e 6fad 3dbe 7632 c9be
000000a0: 0e28 d2be 6d1e a83c 4cc0 4b3d 45b9 e43d
000000b0: 092c d43e 1dfb 99bc d5b1 9ebe c5d5 a73b
000000c0: 391a 5abc 8e4f 96be e65f e6be 82ea adbe
000000d0: a7cb 53be fe1d c83e 4dc4 d3be 6c7a 653c
000000e0: 953c debe 53fb c6be 05a1 143e 4713 163f
000000f0: 1fc9 333d e22c 94be 3ad5 903e c079 a03e
00000100: efab 0cbe 3e87 0bbc c38c 1b3e 2eb7 023e
00000110: 9a18 c53c 1507 3dbe 1e87 1f3d c643 4e3d
00000120: a696 a0bd 1def 373d f994 193e 50dd 853d
00000130: 9b5d d2bd 8f64 b43c 8ab9 513d 6f99 173f
00000140: e4fb c5bd 0e63 763d 5d3c d03c 9cd6 993e
00000150: d3ef ed3e a95f 553c 3f0e d83e 5a9c af3d
00000160: c328 8e3e 7244 7e3d 9e9f cebd e992 6d3d
00000170: 0756 61bd 552f 82be 92c0 45be 26eb 16be
00000180: 9e40 423e fe00 3bbe 0be9 0e3c 61d6 2dbe
00000190: 8504 923d 1b4a 673d 8f78 273e 2f8e 1c3f
000001a0: 30c5 073e d70c 4f3e d7ee 323e a265 06be
000001b0: 4585 843c 3ca9 1d3c f3e9 a83d 26c8 523c
000001c0: 8a62 3b3c 9ca0 3f3e 85ae 9c3d b523 0e3f
000001d0: 37e6 71be 7159 a93d 419d c43e 5083 6f3e
000001e0: f2f1 b73e 1910 5dbe cc3e 2cbe 5974 df3d
000001f0: f260 1fbe d7ba 72bd a090 e13b 028c d6bb
00000200: 7b4e c4bd 8430 27bd 7073 91bc bb13 ea3d
00000210: 1b69 b7bc f5b0 1e3d e8f0 b7bd 8759 3cbd
00000220: 3f2f ab3d b1ba aabc 4e68 bb3d dfec 4fbe
00000230: bf98 fc3d 2eb3 e2bd 5307 673e 188c d3bd
00000240: 8836 e1bd 0ffa 653e 7ce5 07be 53c4 643d
00000250: fff3 61be c132 153c cd77 52be 9886 5fbd
00000260: be11 36be 98a0 1cbd 4f9c afbc 76ed 20be
00000270: 36fb a7bc 84cf b13c 3c24 053e e143 0abe
00000280: cfc8 703d e462 943c a8c6 b1bd ea70 0a3e
00000290: c7af 0c3d 8d9b 50be a045 3cbb 09b4 7bbe
000002a0: 6772 79bc 160f 88be 705f 3ebe 834b d239
000002b0: dd4d 3d3b e03f d73c 2b67 0c3f ceac c93c
000002c0: afdf 473c 4b32 ddbd c1b0 cc3e b439 4dbe
000002d0: be47 b43d 731d 92be 80b2 6f3c d950 28bc
000002e0: 20b3 8e3e 8427 8b3d 13f2 d6bc e20d 64be
000002f0: e96c 4fbd 1b2f 81bd 6a91 2bbe 8a58 fcbd
00000300: 0841 703d 2366 2bbd 0783 94bf dd8d a1be
00000310: 943c 083d 449a 85bf 682c 813e 33ea dabd
00000320: 1b62 d4be 5757 34bd cd82 34bf d91b cd3d
00000330: 25b3 27be 0029 793e b09b 5dbf 39c5 7cbe
00000340: f5da e93e 0907 9dbf 46be b43e 4cb1 13bf
00000350: 7b6d e23d cbe3 4fbe fa62 063d a646 003d
00000360: 4dc4 7b3d 0f86 4bbe 2adb e2bd 3822 78bc
00000370: 55b1 453e d5e1 01bd d914 3ebd 6ef5 b13c
00000380: 2696 a2bc 1b2a 6bbe 73b6 a23e 19bc 20bf
00000390: 3fd3 633c 5e51 b53e 95be 0f3e 5ec3 5d3d
000003a0: b0f9 6a3d 2bcb 703d 0fc1 b63d 3fd7 743d
000003b0: c4ce 8d3e 50dd e7bb 4da8 6ebf 2a54 92bc
000003c0: 3002 ad3a 0767 04be 410d 46bf b04d 1bbf
000003d0: 520f 66bf 5fea 083f 9476 1bbf 8b81 523e
000003e0: 5bb1 75bf 775a 19be 1569 7ebc ecf9 093f
000003f0: 6b8f 963d 8ce4 c8bd 8629 f63e c5af b93e

network.fc4.weight f4 [64, 64]
-0.12544897 -0.91329783 1.020049 -0.5989322 -0.36940768 0.18581647 0.13695073 -0.13301133
0.21738379 -0.092428274 -0.11949933 0.14999875 -1.0408298 -0.07148869 -0.46375838 -0.26681247
-0.21478495 0.45550212 -0.7563353 -0.3386719 0.5024087 0.056959286 0.08396159 -0.014803009
-0.017766971 -0.3129528 -0.18022434 -0.69972664 0.57740057 0.25551763 -0.33819368 -0.23021525
-0.9159542 0.016273962 -0.020977749 0.41915885 -0.6510571 0.12775762 0.101637974 -0.34437972
-0.1938518 0.6287235 -0.22608025 0.6853642 0.68981117 -0.5688356 -1.1087085 -0.06695684
0.47612476 -0.16969803 -0.082470424 -0.0018178995 -0.07203544 -0.250088 0.46464574 -0.41557875
0.41130182 0.21379499 0.14050359 -0.14538364 0.43019593 -0.36708477 0.303911 0.18978462
0.0072935824 -0.035740066 -0.011614249 0.007171463 0.002031041 -0.02872509 -0.035087124 -0.043707386
-0.05939331 -0.039780308 -0.05674072 -0.044925224 -0.047935825 0.017382214 0.010640763 -0.012292606
0.0071395426 -0.03199609 0.01509352 0.0035602213 -0.08945342 0.12918578 -0.030290794 -0.029764524
-0.014421325 0.0043160534 0.0010824626 -0.046325162 -0.030070562 0.031078683 -0.040674917 0.008147446
-0.03751101 -0.023573468 -0.038842022 0.02515567 -0.034495283 -0.0043332856 -0.07394692 0.007960455
-0.078346215 0.010990676 -0.0043675085 0.035102796 0.012741395 -0.012216436 -0.0031602683 -0.03981455
-0.0032695045 0.021292334 0.032090995 -0.010482821 0.08553924 -0.0837656 0.0107133705 0.025478628
-0.020442916 0.05218587 0.018586852 0.001991167 -0.029285451 -0.0348945 0.002106473 0.054936305
-0.015814172 -0.037358306 -0.019349325 -0.02320004 -0.018793702 -0.09699862 0.034464043 0.06382363
0.00049278076 -0.00019357157 0.019007154 0.03544891 0.02473324 -0.032249093 0.002518585 0.07938406
-0.021411408 -0.024791542 0.019299349 -0.027031919 0.02413545 -0.026178151 -0.020630283 0.005976098
0.020675234 -0.012801497 -0.015268584 -0.052590366 0.06085754 -0.03011976 0.012349299 -0.020227617
0.011015852 -0.0077990135 0.002667686 0.07409186 0.021840196 -0.022786574 -0.0023906117 -0.017041102
-0.011457842 -0.015744194 -0.028094605 -0.12928917 -0.0036795952 0.037858974 -0.027329648 0.009350526
-0.024550049 -0.08614994 0.017931527 -0.13082363 -0.057595216 -0.03640564 -0.054561786 0.018046647
-0.03235623 -0.077533714 -0.037776567 -0.009611045 0.008793503 -0.11588306 -0.029977987 0.06911676
0.008388667 -0.09410798 -0.055400148 0.0057687815 0.0077246395 -0.03793401 -0.063063405 -0.063355714
-0.045358464 -0.037891023 -0.060732376 -0.043715402 -0.06094242 -0.017104791 0.02022717 -0.02184891
-0.0050933994 0.009329096 -0.08792461 0.002460939 0.02730086 0.060066417 -0.059135266 -0.023400435
-0.050503142 0.008762268 0.0054280036 -0.040661063 -0.07014418 0.04560832 -0.043874327 0.012898244
-0.02807437 -0.03047403 -0.033200502 0.073507614 -0.0653814 -0.024893178 -0.07679304 -0.0065163113
0.013142031 -0.08393858 0.0031378616 0.14374012 -0.025499335 -0.083987884 0.026526239 -0.02977777
0.07388801 -0.0044356417 -0.047402747 0.037609957 -0.027483841 -0.07135604 0.012825068 -0.07050421
-0.024689607 0.13533264 -0.011366424 0.012289384 -0.046766073 -0.024116278 -0.0029538684 -0.13080971
00000000: b275 00be e3cd 69bf f790 823f 9f53 19bf
00000010: 0123 bdbe ac46 3e3e d03c 0c3e 1f34 08be
00000020: db99 5e3e 094b bdbd 11bc f4bd 4699 193e
00000030: e939 85bf aa68 92bd bd71 edbe a59b 88be
00000040: 96f0 5bbe 9337 e93e 319f 41bf 6766 adbe
00000050: db9d 003f 244e 693d 0ef4 ab3d 5288 72bc
00000060: 0a8c 91bc 593b a0be bb8c 38be 4921 33bf
00000070: 86d0 133f 35d3 823e b927 adbe 8cbd 6bbe
00000080: f97b 6abf f950 853c 87d9 abbc fd9b d63e
00000090: aeab 26bf e5d2 023e 9227 d03d 8a52 b0be
000000a0: 1681 46be 06f4 203f 9581 67be 0774 2f3f
000000b0: 7797 303f 369f 11bf 29ea 8dbf ab20 89bd
000000c0: a0c6 f33e 52c5 2dbe 41e6 a8bd 9646 eeba
000000d0: 5187 93bd 890b 80be 0ce6 ed3e bdc6 d4be
000000e0: 2796 d23e 13ed 5a3e 2ce0 0f3e 73df 14be
000000f0: a442 dc3e 89f2 bbbe 399a 9b3e e656 423e
00000100: 01ff ee3b 2d64 12bd b149 3ebc 98fe ea3b
00000110: 371b 053b e150 ebbc 84b7 0fbd 8406 33bd
00000120: 6646 73bd adf0 22bd f568 68bd 8303 38bd
00000130: 5b58 44bd 2565 8e3c 9856 2e3c ed66 49bc
00000140: d3f2 e93b 550e 03bd d04a 773c 9a52 693b
00000150: 5b33 b7bd 4749 043e 6624 f8bc bbd4 f3bc
00000160: 6c47 6cbc ae6d 8d3b 6be1 8d3a 74bf 3dbd
00000170: 8a56 f6bc b998 fe3c be9a 26bd de7c 053c
00000180: 25a5 19bd 251d c1bc d018 1fbd 4313 ce3c
00000190: ed4a 0dbd 3cfe 8dbb 7c71 97bd 916c 023c
000001a0: fb73 a0bd 3c12 343c 511d 8fbb f3c7 0f3d
000001b0: 49c1 503c 7227 48bc 811c 4fbb 9514 23bd
000001c0: 2f45 56bb 436d ae3c d971 033d 23c0 2bbc
000001d0: 322f af3d 4d8d abbd 2287 2f3c 8eb8 d03c
000001e0: e777 a7bc dac0 553d 7443 983c 3d7e 023b
000001f0: 0be8 efbc 89ed 0ebd c10c 0a3b e404 613d
00000200: b98c 81bc 0605 19bd 7a82 9ebc 030e bebc
00000210: 40f5 99bc 36a7 c6bd 2b2a 0d3d f7b5 823d
00000220: f52d 013a 79f9 4ab9 e4b4 9b3c e032 113d
00000230: 5d9d ca3c a017 04bd d80e 253b 1c94 a23d
00000240: fa66 afbc a217 cbbc ab19 9e3c 0b72 ddbc
00000250: b5b7 c53c 9073 d6bc d700 a9bc 25d3 c33b
00000260: 1c5f a93c 5fbd 51bc 1529 7abc ff68 57bd
00000270: c245 793d b7bd f6bc b754 4a3c 63b4 a5bc
00000280: d57b 343c de8e ffbb 58d4 2e3b 79bd 973d
00000290: 36ea b23c e9aa babc cfab 1cbb c899 8bbc
000002a0: acb9 3bbc f8f9 80bc a826 e6bc 6164 04be
000002b0: 5d25 71bb 0312 1b3d 6de2 dfbc f332 193c
000002c0: 2f1d c9bc 616f b0bd 23e5 923c a1f6 05be
000002d0: f6e8 6bbd 151e 15bd 2e7c 5fbd 90d6 933c
000002e0: f787 04bd ffc9 9ebd 9abb 1abd a577 1dbc
000002f0: a012 103c 1954 edbd 6594 f5bc 168d 8d3d
00000300: 9f70 093c afbb c0bd 44eb 62bd 0c08 bd3b
00000310: f91e fd3b b160 1bbd 6327 81bd a4c0 81bd
00000320: ccc9 39bd 9e33 1bbd 83c2 78bd ec0e 33bd
00000330: c29e 79bd 591f 8cbc 73b3 a53c 7cfc b2bc
00000340: 88e6 a6bb 11d9 183c d111 b4bd b547 213b
00000350: 0ea6 df3c 3408 763d d237 72bd 45b2 bfbc
00000360: 62dc 4ebd 9e8f 0f3c 65dd b13b 378c 26bd
00000370: c0a7 8fbd cacf 3a3d 91b5 33bd 2853 533c
00000380: 39fc e5bc aca4 f9bc 40fd 07bd 298b 963d
00000390: afe6 85bd c7ec cbbc ab45 9dbd c886 d5bb
000003a0: ac51 573c fde7 abbd 95a4 4d3b 9c30 133e
000003b0: fbe3 d0bc d701 acbd 8e4d d93c 83f0 f3bc
000003c0: 9952 973d dc58 91bb 6229 42bd e60c 1a3d
000003d0: cb25 e1bc 1e23 92bd 3c20 523c 8364 90bd
000003e0: dc41 cabc a494 0a3e 3d3a 3abc 6a59 493c
000003f0: c88d 3fbd 808f c5bc b095 41bb fbf2 05be

network.fc_5.weight f4 [1, 64]
-0.010517863 0.072633736 -0.06272725 0.064761125 0.07464476 -0.06791071 0.070036165 0.06849224
-0.060566172 -0.006499135 -0.06493851 -0.063473105 -0.06430424 -0.0060307444 -0.052564047 -0.045462508
0.07013074 0.005403206 0.008611559 0.07093057 0.07114571 -0.060703594 0.07276063 -0.06358219
0.007290538 0.06756663 0.06186648 0.056311965 0.0062463037 -0.057891697 -0.0661067 0.06963795
0.074431114 0.052197717 0.060166597 0.07210528 -0.05728865 -0.05641584 -0.058626737 -0.065395325
-0.062448125 -0.045983475 -0.06432874 -0.06516243 -0.06932373 -0.00758126 -0.06065782 0.06767683
0.02273255 -0.06413861 -0.064594336 -0.06546567 -0.067726426 0.06675796 -0.061546452 -0.06246685
-0.06029478 -0.06146775 0.070970096 -0.06273277 -0.06633887 0.06896341 -0.0070607206 0.007336125
00000000: 1d53 2cbc ffc0 943d 2577 80bd 7ba1 843d
00000010: 5adf 983d c514 8bbd 1f6f 8f3d a945 8c3d
00000020: 3c14 78bd b2f6 d4bb 7bfe 84bd 30fe 81bd
00000030: f1b1 83bd 8d9d c5bb 664d 57bd e536 3abd
00000040: b5a0 8f3d 610d b13b 7f17 0d3c 0c44 913d
00000050: d8b4 913d 55a4 78bd 8603 953d 6137 82bd
00000060: 77e5 ee3b 6060 8a3d b567 7d3d 60a7 663d
00000070: cbad cc3b d81f 6dbd f362 87bd 579e 8e3d
00000080: 576f 983d 46cd 553d 4071 763d efab 933d
00000090: 81a7 6abd 4c14 67bd 9722 70bd fced 85bd
000000a0: 9bc9 7fbd 2b59 3cbd c9be 83bd e173 85bd
000000b0: 9af9 8dbd 386c f8bb 5674 78bd 269a 8a3d
000000c0: 9d39 ba3c 1b5b 83bd 094a 84bd dd12 86bd
000000d0: 27b4 8abd 66b8 883d 2218 7cbd 3ddd 7fbd
000000e0: a9f7 76bd 9cc5 7bbd c558 913d 0a7a 80bd
000000f0: acdc 87bd b03c 8d3d 9e5d e7bb e063 f03b

exp_avg f4 [64, 2]
-0.00039335014 5.153808e-06 0.00021965211 -1.8541701e-06 0.000407979 3.406212e-05 0.0002051984 1.4955075e-05
-0.00026665628 -1.6162274e-05 0.00013456107 1.2698912e-05 -0.0006442485 -6.7567667e-06 0.00019466695 4.4406417e-05
0.0005807438 6.736354e-05 0.00015781139 -1.3735748e-05 5.758999e-05 1.7132788e-05 -0.0005754176 -4.8481284e-06
0.00013916046 9.284348e-06 -0.0006702872 -3.7118746e-06 0.0005144418 2.0262918e-05 -0.00059330574 2.1345716e-07
-0.0004650194 -4.9383834e-06 -0.0006898828 -1.3763794e-05 0.0001393537 3.812783e-05 -0.0010510336 9.518117e-06
0.00054194697 -8.143705e-06 0.0010175846 2.3081242e-05 -0.00048024254 -2.1266202e-05 -0.00014654847 -1.095183e-05
-0.00065942085 -1.6127557e-05 -0.0003972384 8.839677e-06 -0.0006870583 1.1022536e-07 0.00050551357 -8.891157e-05
0.00066722033 1.8593557e-05 0.00010500229 -1.9259023e-06 0.0006866956 2.1667796e-05 0.00012811269 1.7615048e-06
-0.0008078704 -2.071418e-05 -0.00026537184 -1.854175e-05 8.751974e-05 3.0721123e-05 0.00023702804 1.8505412e-05
0.0005188191 -4.6975918e-05 0.00022387483 -5.1953316e-06 0.0008355604 3.5313376e-05 0.000988903 3.23253e-05
0.0011068376 9.858965e-06 -0.0005995248 -1.5490868e-05 0.0003500143 1.9788579e-06 -0.00043670312 -2.0700872e-05
0.0004267625 2.6016838e-05 -0.00031574033 1.8205276e-06 0.00046234438 3.2513257e-05 -0.0004969659 -2.1954855e-05
-0.00055011094 -1.3601938e-05 -0.0006335908 1.0332085e-05 -0.00020596707 -1.8485225e-05 0.00046771468 1.2247112e-05
-0.00080331316 -1.6283904e-05 -0.00063639274 -1.7309143e-06 -0.00063929963 -1.334044e-05 0.0009856977 5.065894e-06
-0.00059823727 -3.246642e-05 0.0010330286 3.839227e-05 -0.00080305344 -2.708006e-05 0.00042676885 -2.2447997e-05
0.00091810594 -6.248844e-05 0.00062673225 -2.3767234e-05 -0.00082504255 -3.7139183e-05 2.3619243e-05 8.3937346e-05
00000000: 903a ceb9 e0ee ac36 6a52 6639 cddc f8b5
00000010: 04e6 d539 ecdd 0e38 872a 5739 8fe7 7a37
00000020: 00ce 8bb9 3894 87b7 f618 0d39 690d 5537
00000030: c9e2 28ba 2fb8 e2b6 831f 4c39 0741 3a38
00000040: 0f3d 183a 8645 8d38 2c7a 2539 9772 66b7
00000050: c88c 7138 62b8 8f37 9fd7 16ba 1bad a2b6
00000060: 9aeb 1139 f9c3 1b37 36b6 2fba 8519 79b6
00000070: 9bdb 063a 49fa a937 1388 1bba a832 6534
00000080: d9cd f3b9 64b4 a5b6 40d9 34ba 0ceb 66b7
00000090: 791f 1239 72eb 1f38 d6c2 89ba 00b0 1f37
000000a0: 7211 0e3a f2a0 08b7 7960 853a 979e c137
000000b0: 10c9 fbb9 d264 b2b7 ceaa 19b9 c0bd 37b7
000000c0: fcdc 2cba aa49 87b7 6f44 d0b9 204e 1437
000000d0: b41b 34ba 08b5 ec33 7184 043a 0976 bab8
000000e0: 66e8 2e3a 5cf9 9b37 ad34 dc38 c03e 01b6
000000f0: 5d03 343a 3dc3 b537 fd55 0639 d86c ec35
00000100: 44c7 53ba 5dc3 adb7 9b21 8bb9 1b8a 9bb7
00000110: cd8a b738 8eda 0038 bb8a 7839 123c 9b37
00000120: 5c01 083a 0208 45b8 f1bf 6a39 8f53 aeb6
00000130: 8209 5b3a 731d 1438 149e 813a 0795 0738
00000140: 4f13 913a ef67 2537 6e29 1dba 63f2 81b7
00000150: 2082 b739 85cc 0436 4df5 e4b9 c9a6 adb7
00000160: 18bf df39 bc3e da37 f389 a5b9 da58 f435
00000170: d066 f239 d85e 0838 d146 02ba b12b b8b7
00000180: 5235 10ba e133 64b7 8f17 26ba f857 2d37
00000190: ddf8 57b9 b810 9bb7 9a37 f539 f278 4d37
000001a0: 6f95 52ba 6b99 88b7 98d3 26ba c351 e8b5
000001b0: ac96 27ba c1d0 5fb7 8732 813a b3fb a936
000001c0: 06d3 1cba 8e2c 08b8 b066 873a 6307 2138
000001d0: 0184 52ba fc29 e3b7 f2bf df39 b54e bcb7
000001e0: 0cad 703a 3a0c 83b8 4a4b 243a bf5f c7b7
000001f0: ab47 58ba e5c5 1bb8 f021 c637 8507 b038

exp_avg_sq f4 [64, 2]
3.7832742e-06 1.3472829e-08 2.2742565e-06 1.2616744e-08 8.344654e-06 2.5719112e-08 4.5131133e-06 1.4496526e-08
6.376435e-06 2.0652712e-08 1.0206522e-07 5.051513e-09 6.672516e-06 2.1014795e-08 1.4104972e-06 5.2150288e-08
1.0803415e-05 3.2449943e-08 6.9755533e-06 3.4467142e-08 5.104134e-08 8.453047e-09 7.167733e-06 2.3610175e-08
6.888529e-06 2.2629292e-08 6.672659e-06 2.2864468e-08 9.028795e-06 2.7716462e-08 6.078779e-06 1.7771967e-07
5.4330626e-06 1.7942863e-08 1.2352637e-05 3.9093095e-08 8.137348e-06 2.6004924e-08 6.6183684e-06 2.1788864e-08
4.7431035e-06 2.1795442e-08 1.1071871e-05 3.4121626e-08 5.24541e-06 1.6702417e-08 6.5423865e-06 2.1560135e-08
6.6647244e-06 2.1106901e-08 1.2716731e-06 2.2234678e-08 5.9061317e-06 1.872825e-08 2.0663436e-05 1.5512047e-07
6.7038745e-06 2.0368487e-08 1.0114919e-06 2.1417142e-08 8.041417e-06 2.4593438e-08 8.990316e-06 2.771908e-08
8.878554e-06 2.8334496e-08 1.0179374e-05 3.3948233e-08 6.9521064e-08 6.7038064e-09 6.09158e-06 1.8482265e-08
3.7763475e-06 3.3900466e-08 1.0581426e-05 3.288995e-08 1.0679538e-05 3.06089e-08 1.2662565e-05 3.8823057e-08
1.0544699e-05 3.1586943e-08 9.701718e-06 3.7918593e-08 9.6244785e-06 2.7813961e-08 6.467116e-06 2.1097632e-08
7.1363606e-06 2.233037e-08 1.0804874e-06 2.2099625e-08 7.706101e-06 2.3851118e-08 7.490686e-06 2.4661626e-08
4.918576e-06 1.600097e-08 6.223007e-06 1.9719044e-08 7.0015562e-06 2.2774143e-08 1.2250683e-05 3.847729e-08
5.2565038e-06 1.749083e-08 3.516512e-06 2.8760386e-08 4.5155675e-06 1.4714132e-08 8.0901855e-06 2.4998386e-08
7.5702783e-06 2.5237009e-08 9.440571e-06 2.723888e-08 9.1995735e-06 2.932748e-08 4.4282474e-06 1.7073061e-08
8.172426e-06 6.913306e-08 8.6643695e-06 2.9364253e-08 8.3275845e-06 2.8064065e-08 6.882866e-08 4.9328666e-08
00000000: 28e4 7d36 2176 6732 6e9f 1836 07c1 5832
00000010: 0400 0c37 edec dc32 596f 9736 650c 7932
00000020: 29f5 d536 cb67 b132 f32e db33 9491 ad31
00000030: 7ae4 df36 0684 b432 5150 bd35 d9fb 5f33
00000040: 5040 3537 175f 0b33 8c0f ea36 0609 1433
00000050: 8c38 5b33 e538 1132 5c82 f036 53cf ca32
00000060: 0324 e736 5762 c232 b4e5 df36 7f67 c432
00000070: 617a 1737 2515 ee32 50f8 cb36 36d3 3e34
00000080: a74d b636 c620 9a32 2c3e 4f37 50e7 2733
00000090: a585 0837 6f61 df32 5a13 de36 382a bb32
000000a0: f326 9f36 af38 bb32 53c1 3937 208d 1233
000000b0: bb01 b036 0179 8f32 ac86 db36 3d33 b932
000000c0: 8ca1 df36 914e b532 5bae aa35 93fe be32
000000d0: 492d c636 dbdf a032 6456 ad37 318f 2634
000000e0: d8f1 e036 c7f6 ae32 99c2 8735 cbf8 b732
000000f0: 9fe9 0637 8b41 d332 1dd5 1637 e71a ee32
00000100: 19f5 1437 3764 f332 14c8 2a37 7ace 1133
00000110: 9c4b 9533 4e57 e631 4666 cc36 eec2 9e32
00000120: 286d 7d36 f599 1133 e186 3137 e242 0d33
00000130: 442c 3337 d776 0333 4d71 5437 67be 2633
00000140: 23e9 3037 36aa 0733 90c4 2237 efdb 2233
00000150: d278 2137 8ceb ee32 1a00 d936 2f3a b532
00000160: df74 ef36 01d1 bf32 4405 9135 97d5 bd32
00000170: 7449 0137 2ae1 cc32 8158 fb36 7dd7 d332
00000180: 3f0a a536 8172 8932 39cf d036 a362 a932
00000190: e9ee ea36 dfa0 c332 4888 4d37 3a42 2533
000001a0: 0661 b036 be3e 9632 37fd 6b36 c20c f732
000001b0: 6e84 9736 70c9 7c32 15bb 0737 08bc d632
000001c0: 3204 fe36 c5c8 d832 f262 1e37 eefa e932
000001d0: de57 1a37 cfeb fb32 5b96 9436 0fa8 9232
000001e0: 4d1c 0937 4d76 9433 2f5d 1137 ad3c fc32
000001f0: b4b6 0b37 8811 f132 f5ce 9333 71dd 5333

exp_avg f4 [64, 64]
-3.1112108e-05 -3.711659e-05 2.014901e-07 -1.8224355e-05 -8.236648e-06 1.4322208e-05 -2.0135916e-05 -4.4880403e-06
-8.990825e-07 2.1708554e-06 3.964536e-05 -3.0242543e-05 -6.11612e-06 -2.329918e-05 -4.3607e-06 -2.9129931e-05
-1.526384e-05 -2.3084722e-05 5.165317e-06 -6.542103e-05 -6.526717e-06 -2.380239e-05 -6.6512152e-06 -2.00139e-05
-1.9097291e-05 -5.370457e-05 -2.1020674e-05 -8.4524545e-05 -2.709685e-05 -1.0379424e-05 -1.1213635e-05 -2.4722382e-05
-1.6113941e-05 -9.218877e-06 3.405399e-05 -5.2357045e-06 -3.496369e-05 -1.6033691e-05 -2.06956e-05 -1.1213003e-05
-3.0984276e-05 -1.1146635e-05 -1.209888e-05 -1.0122185e-05 -5.313027e-06 -4.6326688e-05 -1.7833385e-05 -1.5097147e-05
-1.810422e-05 -6.072903e-05 -6.7666806e-06 -1.6582962e-05 -3.2717835e-05 -5.531534e-05 -5.364448e-05 -3.4295907e-05
-1.6329572e-05 -1.0549874e-05 -1.6227652e-05 -2.7896687e-05 -2.501967e-05 -4.839066e-05 -3.283578e-05 6.2850404e-06
7.141455e-06 1.8175989e-06 -1.0006073e-05 1.4061656e-06 3.12732e-06 -1.6904964e-05 1.866853e-05 1.0930182e-05
-5.201115e-06 1.9515628e-06 -1.7949886e-05 2.0965937e-05 -7.541696e-07 1.5870555e-05 1.1078376e-05 -2.10542e-06
2.0496744e-05 1.747335e-05 -4.322626e-06 5.5968936e-05 4.605151e-08 8.052502e-06 8.814061e-06 -3.8572202e-06
1.8991466e-05 1.8296698e-05 1.8001681e-05 4.0230666e-06 1.2342238e-05 2.8672655e-06 4.059962e-06 -2.760604e-06
8.732374e-06 2.3286846e-06 -6.0925677e-06 7.4568557e-06 3.8379465e-05 5.7126827e-06 7.922251e-06 8.855147e-06
1.1036514e-05 7.5418857e-06 8.692657e-06 1.0226173e-05 7.0907126e-06 7.933656e-06 -7.45305e-07 9.027213e-06
1.404316e-05 3.4378325e-05 -3.8329713e-06 4.911006e-06 1.3207838e-05 2.222103e-05 1.9136789e-05 2.1035925e-05
1.4577061e-05 6.1577402e-06 5.141314e-06 3.2923876e-05 8.517731e-06 1.6820411e-05 -2.6413234e-06 -4.7740764e-06
1.8487535e-06 -1.9102205e-05 -6.4016617e-06 -2.3150176e-05 -1.777025e-05 3.4605608e-05 -1.1305315e-05 -6.9881617e-06
-1.3005285e-06 -1.6757056e-06 -7.139305e-06 -5.455829e-06 -9.317531e-06 -3.6422314e-06 -7.730502e-06 -7.827895e-06
-4.7154213e-06 -9.515958e-06 -1.5198433e-06 2.3980353e-06 2.7423703e-06 3.4471693e-06 -2.2714303e-06 -9.145179e-06
-4.061932e-06 -7.2659864e-06 -5.7206776e-06 -2.0052653e-06 -1.6795088e-06 -5.157508e-06 -1.0543082e-05 7.819698e-06
7.099544e-06 -1.2696932e-05 1.9292464e-05 2.131709e-06 -4.9135074e-06 8.642699e-06 -5.369753e-06 -1.3659751e-06
-5.462315e-06 -3.7974949e-06 1.8026321e-05 -1.0732329e-05 -6.3314424e-06 -1.4447652e-05 -2.4255842e-06 -5.4404387e-07
-6.6010184e-06 -5.802196e-06 -5.041233e-06 1.9480094e-06 -9.395234e-06 -9.209563e-06 -1.0936005e-05 6.8180443e-06
-5.760355e-06 -5.298475e-06 -4.3885766e-06 -8.2665883e-07 -1.6889182e-05 8.113775e-06 -1.9454466e-05 1.076732e-05
2.9203038e-05 -8.497663e-06 3.7099475e-05 3.5911366e-05 5.931655e-06 -2.331388e-05 -3.654392e-06 1.4244472e-05
2.033872e-05 -7.924124e-06 -1.6370572e-05 7.266532e-06 4.6508405e-05 6.153506e-06 4.358641e-05 -1.2805886e-05
-1.0532315e-05 1.50249e-05 2.5006284e-05 -1.1027569e-05 1.5846374e-05 1.3471487e-05 -9.410017e-06 1.0176568e-05
1.1286808e-05 1.3626448e-05 9.999395e-07 2.2890219e-05 3.2663007e-05 1.9214867e-05 1.5553047e-05 2.5751511e-05
-8.1206434e-07 4.0787554e-06 -2.6444022e-05 4.697116e-05 5.1751654e-06 2.0553978e-05 4.3274093e-05 1.31157485e-05
-1.4621595e-06 -5.660392e-06 2.0447447e-05 1.113842e-06 1.8391353e-05 -1.0130509e-05 3.3222634e-05 -4.911882e-06
5.411413e-06 1.5659309e-05 1.3584794e-06 2.4507379e-05 -4.0589262e-07 -1.2197963e-05 -5.839103e-06 5.202096e-07
-1.3641839e-05 1.456657e-06 -1.4806079e-05 1.8584464e-05 -6.139487e-07 2.4622872e-05 -2.6849173e-05 -6.6048897e-06
00000000: 5f7e 02b8 a3ad 1bb8 2d59 5834 81e0 98b7
00000010: 2230 0ab7 6a49 7037 8de9 a8b7 f997 96b6
00000020: 7b58 71b5 03af 1136 e248 2638 5eb1 fdb7
00000030: 1239 cdb6 9c72 c3b7 2152 92b6 0d5c f4b7
00000040: d90a 80b7 10a6 c1b7 bc51 ad36 a632 89b8
00000050: 1200 dbb6 3eab c7b7 812d dfb6 86e3 a7b7
00000060: 1f33 a0b7 d840 61b8 8e55 b0b7 c542 b1b8
00000070: 0b4e e3b7 4923 2eb7 3222 3cb7 e962 cfb7
00000080: 6d2c 87b7 c6aa 1ab7 31d5 0e38 5cae afb6
00000090: faa5 12b8 1780 86b7 769b adb7 7b1f 3cb7
000000a0: 1df5 01b8 6f02 3bb7 4bfc 4ab7 74d2 29b7
000000b0: 8e46 b2b6 e74e 42b8 e798 95b7 c149 7db7
000000c0: 84de 97b7 4db7 7eb8 580d e3b6 a41b 8bb7
000000d0: 823a 09b8 6502 68b8 5200 61b8 f3d8 0fb8
000000e0: 7dfb 88b7 5dff 30b7 9e20 88b7 ae03 eab7
000000f0: 55e1 d1b7 13f7 4ab8 26b9 09b8 16e4 d236
00000100: a2a0 ef36 39f4 f335 c2df 27b7 7bbb bc35
00000110: f3de 5136 22cf 8db7 5d9a 9c37 c660 3737
00000120: 3d85 aeb6 98f7 0236 1693 96b7 02e0 af37
00000130: 2472 4ab5 c221 8537 43dd 3937 d74a 0db6
00000140: 6cf0 ab37 bc93 9237 130b 91b6 30c0 6a38
00000150: 2cca 4533 3c19 0737 1be0 1337 456d 81b6
00000160: dd4f 9f37 dc7b 9937 5102 9737 e1fd 8636
00000170: 8211 4f37 3f6b 4036 cf3a 8836 d142 39b6
00000180: 4381 1237 7f46 1c36 c26e ccb6 e735 fa36
00000190: a3f9 2038 92af bf36 cfe9 0437 9190 1437
000001a0: 7729 3937 4e10 fd36 add6 1137 1491 2b37
000001b0: c2ec ed36 cb1a 0537 f810 48b5 9673 1737
000001c0: ea9a 6b37 7231 1038 f99c 80b6 38c9 a436
000001d0: 3b97 5d37 4c67 ba37 f187 a037 4e76 b037
000001e0: 0090 7437 969e ce36 8d83 ac36 be17 0a38
000001f0: 60e7 0e37 8f19 8d37 9741 31b6 0131 a0b6
00000200: b022 f835 ac3d a0b7 dbcd d6b6 a032 c2b7
00000210: 5211 95b7 7d25 1138 f5ab 3db7 da7b eab6
00000220: d28d aeb5 cee8 e0b5 2a8e efb6 3711 b7b6
00000230: 7e52 1cb7 0f6d 74b6 41b2 01b7 8e54 03b7
00000240: 2939 9eb6 baa6 1fb7 6bfd cbb5 efed 2036
00000250: 9009 3836 eb55 6736 e06e 18b6 3f6e 19b7
00000260: bb4b 88b6 59ce f3b6 3ff4 bfb6 3292 06b6
00000270: 7c6b e1b5 a80e adb6 31e2 30b7 5931 0337
00000280: 9e38 ee36 e804 55b7 40d6 a137 7b0e 0f36
00000290: b5de a4b6 1c00 1137 d42d b4b6 8c56 b7b5
000002a0: ee48 b7b6 77d8 7eb6 3b37 9737 010f 34b7
000002b0: ad72 d4b6 3164 72b7 38c7 22b6 690a 12b5
000002c0: 517e ddb6 7cb0 c2b6 dd27 a9b6 8cba 0236
000002d0: 39a0 1db7 c682 1ab7 c979 37b7 8ec6 e436
000002e0: 1349 c1b6 8ec9 b1b6 9641 93b6 90e7 5db5
000002f0: 3ead 8db7 6620 0837 2632 a3b7 4aa5 3437
00000300: 0cf9 f437 2f91 0eb7 429b 1b38 899f 1638
00000310: 8708 c736 2d92 c3b7 fa3d 75b6 8bfb 6e37
00000320: 129d aa37 daf1 04b7 8953 89b7 09d3 f336
00000330: 0512 4338 377a ce36 8dd0 3638 ddd8 56b7
00000340: f3b3 30b7 7413 7c37 96c4 d137 0c03 39b7
00000350: d4ed 8437 9903 6237 b7df 1db7 07bc 2a37
00000360: 795c 3d37 269d 6437 a935 8635 5f04 c037
00000370: a3ff 0838 9d2f a137 ea77 8237 f304 d837
00000380: a3fc 59b5 3edc 8836 1bd4 ddb7 e602 4538
00000390: 55a6 ad36 556b ac37 3481 3538 b60b 5c37
000003a0: 6b3f c4b5 66ee bdb6 8f86 ab37 527f 9535
000003b0: 2147 9a37 34f6 29b7 8858 0b38 bfd0 a4b6
000003c0: af93 b536 1c5c 8337 ff54 b635 3295 cd37
000003d0: 75e9 d9b4 daa5 4cb7 83ed c3b6 88a4 0b35
000003e0: 41df 64b7 5a82 c335 a067 78b7 d5e5 9b37
000003f0: 3cce 24b5 378d ce37 293a e1b7 929f ddb6

exp_avg_sq f4 [64, 64]
4.6845187e-08 4.944355e-08 3.5175365e-08 4.9400715e-08 4.548978e-08 2.0413031e-08 1.695308e-08 1.611312e-08
9.0776995e-09 1.0649805e-08 2.8677485e-08 2.142867e-08 3.100257e-08 1.0952633e-08 1.9204998e-08 2.558436e-08
3.1763705e-08 2.4667617e-08 1.4479825e-08 4.862784e-08 6.3892314e-09 2.032951e-08 1.2136748e-08 1.7758543e-08
1.0836621e-08 4.3688868e-08 1.43113965e-08 1.2959376e-07 4.2423988e-08 3.3498118e-08 1.9495312e-08 2.8648596e-08
5.2442464e-09 4.7921183e-09 2.3745953e-08 4.1595754e-08 2.7095107e-08 8.638052e-09 3.5625728e-08 1.0970467e-08
1.490685e-08 2.5049582e-09 1.35592355e-08 2.9342234e-08 2.2007345e-08 4.1361595e-08 2.6305017e-08 1.2954369e-08
2.3197025e-08 3.9188585e-08 1.1474245e-08 1.3410799e-08 2.5320428e-08 4.419423e-08 3.1122514e-08 2.7771623e-08
7.301698e-09 3.9147377e-08 2.612304e-09 5.907169e-08 1.2961391e-08 2.5568138e-08 3.221366e-08 8.99094e-09
2.8500954e-08 2.9736979e-08 2.054014e-08 2.9018267e-08 2.7457585e-08 1.0557396e-08 9.795897e-09 9.359449e-09
5.4072e-09 6.3472423e-09 1.5785982e-08 1.2364828e-08 1.8398492e-08 6.147793e-09 1.1600839e-08 1.37816265e-08
1.8618657e-08 1.4601068e-08 8.563267e-09 2.973965e-08 3.879643e-09 1.21630945e-08 7.413529e-09 1.0572956e-08
6.6083214e-09 2.6151419e-08 8.595616e-09 7.867436e-08 2.5197922e-08 1.9897557e-08 1.1587184e-08 1.7777325e-08
3.0316916e-09 2.979762e-09 1.25183e-08 2.4995186e-08 1.622041e-08 5.1444875e-09 2.1817112e-08 6.4016064e-09
8.6123855e-09 1.5538042e-09 7.936969e-09 1.7502476e-08 1.2888137e-08 2.5421839e-08 1.4978921e-08 7.522839e-09
1.42022705e-08 2.2638968e-08 7.124378e-09 7.669269e-09 1.4511643e-08 2.6376286e-08 1.8490717e-08 1.6163563e-08
4.5230966e-09 2.2221544e-08 1.6192705e-09 3.566927e-08 7.96405e-09 1.5584218e-08 1.900017e-08 5.26072e-09
8.719147e-09 7.73498e-09 9.917834e-09 8.929828e-09 8.6974765e-09 5.945167e-09 4.9747197e-09 2.366212e-09
3.8845744e-09 6.0464216e-09 6.8639485e-09 6.9740262e-09 5.1878017e-09 3.8890904e-09 6.2703687e-09 7.3746143e-09
7.483061e-09 6.1938326e-09 6.194544e-09 9.921926e-09 5.8062453e-09 5.0814575e-09 4.842724e-09 6.473336e-09
5.132636e-09 6.4537757e-09 5.5377347e-09 2.2103642e-08 9.75175e-09 5.101175e-09 6.9237305e-09 6.466829e-09
3.302505e-09 3.0719187e-09 6.9002337e-09 7.497266e-09 4.268723e-09 3.976054e-09 8.792577e-09 2.5776774e-09
5.358285e-09 4.8354907e-09 4.6178807e-09 5.774777e-09 6.3448926e-09 6.475974e-09 8.207012e-09 5.280883e-09
5.1095665e-09 8.890504e-09 3.7230896e-09 2.7509135e-09 5.616964e-09 6.6985746e-09 7.566252e-09 6.112528e-09
4.466823e-09 7.8558475e-09 3.6694723e-09 8.960009e-09 4.714292e-09 8.046615e-09 6.4586487e-09 1.515496e-09
3.2661724e-08 2.8746385e-08 2.2803068e-08 2.9008367e-08 3.1560592e-08 1.860998e-08 1.415692e-08 9.753473e-09
7.502096e-09 1.112672e-08 2.314299e-08 1.8053235e-08 1.653829e-08 1.024938e-08 1.3360142e-08 1.9589843e-08
2.4363336e-08 1.9458493e-08 1.1877825e-08 3.4886167e-08 1.2285902e-08 1.2386257e-08 1.0994152e-08 1.5540643e-08
1.0159383e-08 2.5534483e-08 1.3071634e-08 4.3161865e-08 2.4282166e-08 2.0909361e-08 1.4231751e-08 1.7133607e-08
5.5192677e-09 5.4673976e-09 2.1227727e-08 2.3360569e-08 1.7086482e-08 7.3993958e-09 2.2406578e-08 6.451312e-09
1.0996503e-08 4.8846465e-09 9.745602e-09 2.0335817e-08 1.4709893e-08 2.613778e-08 1.8789894e-08 1.2160744e-08
1.686737e-08 2.9233691e-08 1.0058616e-08 7.7269835e-09 1.9280094e-08 2.5925047e-08 2.4328733e-08 1.5869293e-08
8.293104e-09 2.1741755e-08 4.133853e-09 3.416974e-08 9.531107e-09 1.7478436e-08 2.3278284e-08 6.2920393e-09
00000000: d432 4933 c25b 5433 b913 1733 a92c 5433
00000010: 8b60 4333 bb58 af32 38a0 9132 2069 8a32
00000020: 25f4 1b32 56f6 3632 7556 f632 2512 b832
00000030: b027 0533 302a 3c32 3df8 a432 9ac4 db32
00000040: 906c 0833 aae4 d332 f2c2 7832 e0da 5033
00000050: 4688 db31 11a1 ae32 fb81 5032 738b 9832
00000060: f72b 3a32 6ba4 3b33 30de 7532 7626 0b34
00000070: ab35 3633 92df 0f33 a576 a732 ee16 f632
00000080: e130 b431 eba7 a431 e7f9 cb32 04a7 3233
00000090: c5be e832 8e66 1432 e702 1933 a078 3c32
000000a0: 830c 8032 b123 2c31 26f2 6832 410c fc32
000000b0: aa0a bd32 8ea5 3133 58f5 e132 eb8d 5e32
000000c0: cc42 c732 4e50 2833 4320 4532 5165 6632
000000d0: 3680 d932 12d0 3d33 91ab 0533 728e ee32
000000e0: 6ae2 fa31 ff22 2833 2384 3331 03b6 7d33
000000f0: cdac 5e32 eea0 db32 4b5b 0a33 9376 1a32
00000100: 43d2 f432 4f70 ff32 3f70 b032 d843 f932
00000110: dedb eb32 eb5f 3532 d04a 2832 4bcb 2032
00000120: 3cca b931 ef16 da31 be99 8732 176d 5432
00000130: b60a 9e32 8f3c d331 084d 4732 3cc4 6c32
00000140: dcee 9f32 2dd8 7a32 a61d 1332 2f76 ff32
00000150: b34d 8531 dbf5 5032 17ba fe31 5aa4 3532
00000160: 690f e331 94a3 e032 ebab 1332 b0f3 a833
00000170: d172 d832 31eb aa32 f910 4732 c0b4 9832
00000180: 1556 5031 87c4 4c31 1110 5732 ffb4 d632
00000190: 0f55 8b32 64c3 b031 5668 bb32 20f5 db31
000001a0: acf5 1332 a08d d530 295b 0832 5a58 9632
000001b0: a06a 5d32 375f da32 ffaa 8032 cc3d 0132
000001c0: 3ffe 7332 9e77 c232 b1ca f431 cdc1 0332
000001d0: e24e 7932 1192 e232 84d5 9e32 0dd8 8a32
000001e0: 9469 9b31 b1e1 be32 048d de30 c732 1933
000001f0: 43d2 0832 0fde 8532 d135 a332 c8c1 b431
00000200: 37cb 1532 cde2 0432 1863 2a32 cd69 1932
00000210: e86b 1532 3e46 cc31 19ee aa31 d79a 2231
00000220: 1479 8531 e3c0 cf31 eed7 eb31 2fa0 ef31
00000230: 6340 b231 cda0 8531 bf72 d731 cb63 fd31
00000240: da8e 0032 87d1 d431 c9d7 d431 1875 2a32
00000250: 4680 c731 f998 ae31 0d65 a631 116c de31
00000260: 255b b031 03c0 dd31 6e46 be31 6cde bd32
00000270: a688 2732 6946 af31 c7e5 ed31 d432 de31
00000280: 48f2 6231 c419 5331 1917 ed31 53cd 0032
00000290: 16ac 9231 be9d 8831 2a0e 1732 fb22 3131
000002a0: f91b b831 6d25 a631 4fab 9e31 7a6b c631
000002b0: 4402 da31 4583 de31 d2fe 0c32 2373 b531
000002c0: 3990 af31 dabc 1832 49d9 7f31 950a 3d31
000002d0: 56ff c031 4929 e631 bafc 0132 5d06 d231
000002e0: 977a 9931 62f6 0632 0a2a 7c31 89ee 1932
000002f0: 5afb a131 633d 0a32 e0ea dd31 c649 d030
00000300: f247 0c33 f8ed f632 7ae0 c332 132e f932
00000310: 3d8d 0733 c7db 9f32 cb36 7332 3a90 2732
00000320: 91e2 0032 d527 3f32 f9cb c632 7c13 9b32
00000330: 1610 8e32 4015 3032 8786 6532 8546 a832
00000340: 8b47 d132 ae25 a732 3a0f 4c32 bfd5 1533
00000350: f811 5332 56cb 5432 cbe0 3c32 3c7e 8532
00000360: 7089 2e32 ec56 db32 a891 6032 f960 3933
00000370: 0c95 d032 2c9c b332 e77f 7432 332d 9332
00000380: fea3 bd31 bddb bb31 4458 b632 6faa c832
00000390: 92c5 9232 c63d fe31 9678 c032 57aa dd31
000003a0: 22eb 3c32 ced5 a731 9c6d 2732 efae ae32
000003b0: cbb6 7c32 9685 e032 6a67 a132 85eb 5032
000003c0: bde3 9032 911d fb32 43ce 2c32 a2bf 0432
000003d0: 609d a532 c8b1 de32 73fb d032 f250 8832
000003e0: 7579 0e32 a0c2 ba32 c109 8e31 07c2 1233
000003f0: 40be 2332 7d23 9632 7df5 c732 5d31 d831
